scripts/kaggle/AEFuzzy/weights/decoder_wts.pth (torch_old, 4026 bytes, 8 tensors)

0.weight f4 [16, 8]
000000 15 64 a4 bd 50 6f 16 bf 00 ba d9 be 0a 62 64 3e
       -0.08026902 -0.587636 -0.4252472 0.22303024
000010 df 13 b5 bd d7 7a 75 bd 7f 81 98 be c1 f8 b7 3d
       -0.08841681 -0.059931602 -0.29786298 0.08982993
000020 fb 68 44 bf fe 9b 93 3b 49 01 7b be d6 1f c2 3e
       -0.7672269 0.0045046797 -0.24512209 0.37914914
000030 48 46 a2 3d 31 1e 2e bd 57 55 9c 3e fa 8d a9 3e
       0.07923561 -0.04250926 0.3053386 0.33116132
000040 c5 7d 0b be 62 53 ca 3e 1b 13 f6 bc bf c2 4e 3e
       -0.13622196 0.3951674 -0.030038407 0.20191477
000050 85 f6 be 3e 63 99 2c 3e 60 b8 0b bf d4 6f c9 3d
       0.37297454 0.16855387 -0.5457821 0.09835783
000060 0b a2 bf be 1e 64 da be a5 b2 39 3b d7 13 df be
       -0.37428316 -0.42654508 0.002833524 -0.43569824
000070 80 15 76 3d e5 76 c2 bd 20 e7 2f 3e 63 5d 3c 3d
       0.060079098 -0.094953336 0.17178011 0.045987498
000080 5f f0 4d 3d 4f 9e ba 3e 41 94 4d bd 11 c9 ce 3e
       0.050278064 0.36448905 -0.050190214 0.40387776
000090 2a 94 b1 3b 22 bb 30 bf 0b 74 ad 3e 5d 90 db 3d
       0.005419274 -0.6903554 0.33877596 0.107208945
0000a0 a9 94 10 bf 87 73 33 3e e3 6e 80 3d e8 4d 2b 3e
       -0.5647684 0.17524539 0.0627115 0.16728938
0000b0 c9 bd 2c 3e 4a f8 9a 3e 33 b7 c5 3b 01 3f 1a bf
       0.16869272 0.30267555 0.006033802 -0.60252386
0000c0 dc 52 46 3d 47 39 af bb c4 5a 85 be 4b 91 c5 bb
       0.048418865 -0.005347404 -0.2604581 -0.006029283
0000d0 9b 01 f4 3c 3d 6a ac b9 fb af 64 bb 1d 19 48 bf
       0.029785922 -0.0003288555 -0.0034894932 -0.7816332
0000e0 a7 a0 b2 bd 99 7c a5 3e cd 60 81 bd 2a d2 3d 3c
       -0.08722048 0.32321623 -0.063172914 0.011585752
0000f0 9c e6 2d bf 42 5f e4 3d 96 1c 1f 3e 69 94 1d be
       -0.67930007 0.111509815 0.15538248 -0.15388645
000100 69 fa f3 be 7f 63 ae be b4 77 16 3f 60 b9 76 be
       -0.47651985 -0.34060284 0.587764 -0.24094152
000110 31 50 13 bf 33 b6 d9 3e 8d 64 94 be 7e 7c ed bd
       -0.5754424 0.4252182 -0.28982964 -0.115960106
000120 28 44 01 bb fc e3 63 be ff 93 37 3e 33 fb a9 be
       -0.0019724462 -0.22254938 0.1792755 -0.33199462
000130 31 76 06 3e c8 c5 01 bf 21 17 d5 3d 06 8a 90 be
       0.13131024 -0.50692415 0.10404802 -0.28230304
000140 8f 6d b9 3e 93 fa e1 be 01 4d 63 3e 6d cd ab 3e
       0.362164 -0.44136485 0.22197343 0.33555165
000150 1e e2 94 3e 1c da d3 3e 46 dc 0e 3e 2a 1c 20 bf
       0.29078764 0.41377342 0.13951215 -0.62542975
000160 50 50 74 be 4b 1c 35 3e 0b 93 56 bf f1 88 e7 be
       -0.23858762 0.17686574 -0.8381812 -0.45221666
000170 d3 3e 35 3d a0 d4 91 3e 90 b5 59 3d 6c 1c 3b 3e
       0.044249367 0.28482533 0.053151667 0.18272561
000180 05 f3 84 bc 37 a8 a8 3e 60 19 87 3e de 56 8c b9
       -0.016229162 0.32940838 0.26386547 -0.00026767602
000190 fc cb 28 be a8 95 83 bd aa cd c1 be 20 18 a1 be
       -0.16484064 -0.06425029 -0.37852222 -0.31463718
0001a0 40 36 86 be 51 3b 9c be 91 8f 10 3e a8 5a d7 bc
       -0.26213264 -0.30514005 0.14117266 -0.026288345
0001b0 23 ab 4f be c4 dc 21 bf c3 2d be be 6f 3d cf 3d
       -0.20280127 -0.63227487 -0.37144288 0.101191394
0001c0 dd 12 ff bd 96 f7 3d 3e 66 69 95 3e c6 ce 88 bd
       -0.1245477 0.18551478 0.29181975 -0.06680064
0001d0 dc 78 03 3f c3 b8 1c be 49 9f 8c 3d 72 44 14 3e
       0.5135629 -0.15304856 0.06866319 0.14479235
0001e0 40 e7 21 3e c4 2d 4e 3e 13 8e 6a be a6 2d 09 bf
       0.15810871 0.20134646 -0.2290576 -0.5358528
0001f0 9a 95 af bc 1b 13 16 be b7 94 f0 bd 31 e5 80 3e
       -0.02143364 -0.14655726 -0.11747115 0.2517486

0.bias f4 [16]
000000 a7 b1 b0 b5 a9 ce 00 32 0b be c9 b4 49 db 97 34
       -1.3164725e-06 7.49757e-09 -3.7577442e-07 2.8285493e-07
000010 c7 69 05 b5 65 a1 93 34 0c 55 ce b5 c0 80 b9 35
       -4.970029e-07 2.7498314e-07 -1.5372948e-06 1.3821045e-06
000020 47 61 7a 35 fc 62 c6 b4 47 5c bd 34 01 9a 5e 34
       9.3273815e-07 -3.6952395e-07 3.5271134e-07 2.0731387e-07
000030 29 63 28 b5 db c8 ff b5 b4 7a 39 35 62 1f b6 35
       -6.2729174e-07 -1.9057437e-06 6.9096427e-07 1.356919e-06

1.weight f4 [16]
000000 22 83 21 3f 56 cc 10 3f fe b4 07 3f dc 28 0d 3f
       0.6309072 0.5656179 0.5301055 0.5514047
000010 86 51 2f 3f 06 a6 2a 3f fb cc 2e 3f c3 03 1d 3f
       0.6848377 0.6665958 0.68281525 0.61333865
000020 84 5e 23 3f e5 3b 3a 3f 83 9a 43 3f 5c 9e 35 3f
       0.63816094 0.7274764 0.7640764 0.7094476
000030 6e 0f 21 3f 76 6a 1e 3f 27 c6 1a 3f dd bc 0e 3f
       0.6291417 0.61881196 0.60458606 0.5575693

1.bias f4 [16]
000000 86 97 20 bc 60 2b 80 bd 7f 89 c9 3d 37 85 b5 bd
       -0.009801751 -0.06258273 0.098406784 -0.08863299
000010 95 f3 dd bd f6 06 19 3c b5 83 32 3e 99 36 31 3d
       -0.10837475 0.0093400385 0.17433055 0.04326496
000020 6c 7a 20 be f8 c1 b2 bd 2c d5 33 be 43 5b 1c be
       -0.156717 -0.08728403 -0.17561787 -0.15269189
000030 11 2c a2 ba 98 16 8b bd fd 44 4f be e9 df 37 be
       -0.0012372752 -0.06791419 -0.2024116 -0.17956509

1.running_mean f4 [16]
000000 fe f0 96 be d1 e0 4a 3d 1d 32 61 39 36 75 d2 bd
       -0.29480737 0.049530808 0.00021476341 -0.102762625
000010 58 26 e1 3d 2c 7a 67 3c 07 5f e8 bd 24 78 af bc
       0.109936416 0.014128249 -0.1134625 -0.021419592
000020 bd ff 48 be 62 20 cd bd a0 00 e2 3d 9c a0 55 bd
       -0.19628806 -0.10015942 0.110352755 -0.052155122
000030 f3 83 c5 bd 4a 40 aa be 9a 7a 2d 3e 88 48 5b bd
       -0.09644308 -0.33252174 0.169413 -0.053535968

1.running_var f4 [16]
000000 1b 99 dd 3e 43 d2 98 3f 42 e8 39 3f 03 36 09 3f
       0.43280873 1.1939167 0.7262002 0.5359804
000010 c9 de 2b 3f 25 79 37 3f 66 2b 3f 3f 8c e9 1e 3f
       0.6713682 0.71669227 0.74675596 0.62075114
000020 af 24 8f 3f 09 b4 a4 3e bb e7 6e 3f cf cd 8d 3f
       1.118307 0.32168606 0.9332234 1.1078433
000030 b8 06 17 3f 20 92 4f 3f 57 a1 a1 3e 42 bc f3 3e
       0.58994627 0.81082344 0.31568405 0.47604567

4.weight f4 [24, 16]
000000 4d 61 90 bd 05 4b 8f 3d 1e e2 b0 bd 32 f4 0b 3e
       -0.07049809 0.06996731 -0.086368784 0.13667372
000010 1b e3 bc 3c 0f 29 29 3d 30 6f c4 bc 85 06 b2 3d
       0.023057511 0.041298922 -0.0239788 0.0869265
000020 5d b7 1b 3d bd 36 d3 3c b9 a5 34 bd 1d 92 f6 3d
       0.038016666 0.025782937 -0.044103358 0.12039588
000030 87 96 9c bd e3 3e 8f bc fd e2 ad 3c 45 6f 5c 3d
       -0.07645898 -0.017486041 0.0212264 0.053817052
000040 f4 9b b8 3d 80 87 15 3e 5c ee 2b be fc 5a 01 3e
       0.09014121 0.1460247 -0.16790146 0.12632364
000050 40 e2 bc 3c 7c b8 26 3b 5f d6 fa 3c 69 6e 15 3b
       0.023057103 0.002543955 0.030619798 0.0022801405
000060 f5 da cf 3b 63 45 00 3d f9 d3 a6 bb f8 41 52 bd
       0.0063432404 0.031316172 -0.005091187 -0.051332444
000070 b4 b4 23 bd 23 45 9d 3c 3d 03 7c bd 36 37 e6 bc
       -0.039967254 0.019198006 -0.061526526 -0.028102499
000080 3a 5d 7d 3d 2f b1 fd bd 78 28 9d bd 48 5a d5 bd
       0.061856486 -0.12387311 -0.076737344 -0.104176104
000090 b9 96 5b 3c dd 17 95 bd ba 8c c6 bc ff 81 19 ba
       0.013402634 -0.07279942 -0.024237026 -0.0005855858
0000a0 8c 0a 09 3d a6 7a 18 3c 29 1f c4 3d ef 5c a3 bd
       0.033457324 0.009306585 0.09576256 -0.0797671
0000b0 d1 15 16 3c 53 14 b3 3b 6f 19 04 be 6c a5 64 bd
       0.009160475 0.0054650693 -0.12900327 -0.05582182
0000c0 85 4c 4e bc d2 e0 47 bd f4 97 9c 3e c4 d8 03 be
       -0.012591486 -0.04879839 0.3058468 -0.12875658
0000d0 a1 28 be bc 56 80 f4 3c e3 31 76 3a 49 97 6b bd
       -0.023212733 0.029846352 0.0009391589 -0.057517324
0000e0 b5 39 45 bd 7c 67 c3 bd d5 94 7d bd 2d 96 4a 3c
       -0.048150737 -0.095412225 -0.061909515 0.012364906
0000f0 ac aa d0 3d d5 d6 7b 3c 48 ca c0 3d 1a f5 a9 3c
       0.10188803 0.015371044 0.09413582 0.020746756
000100 96 0f 84 bd 47 64 de bc 14 ec b0 3c 64 63 2e bd
       -0.06448285 -0.027147425 0.021596946 -0.042575255
000110 44 65 1a bd d3 54 ae ba 15 36 ba 3c 7b 97 c7 bc
       -0.03769423 -0.0013300426 0.022730866 -0.024364224
000120 a0 b9 b9 bc 66 a2 e1 3c 68 05 c0 3c 58 1e 0a bc
       -0.02267152 0.027543258 0.023440078 -0.008430086
000130 b1 b2 79 3a b4 7f a1 bc 87 b9 af 3d 2e ce 06 3d
       0.0009525223 -0.019714214 0.085803084 0.032911472
000140 83 5a 54 bd e6 46 b5 3d 2a 47 76 bd ef ff 30 3e
       -0.05184413 0.088514134 -0.06012646 0.17285131
000150 73 66 f1 3a af eb 01 3d 33 ef b4 bc bc 91 68 3d
       0.0018417373 0.031718906 -0.022086715 0.056779608
000160 b2 1e c9 3c 08 66 d4 3a b1 2a 5e bd b8 b3 1c 3e
       0.02455077 0.0016204724 -0.054239932 0.15302932
000170 e0 31 21 bd 07 40 35 bd 57 a9 15 3d 63 3c 18 3d
       -0.039354205 -0.044250514 0.03653845 0.037166964
000180 35 fa 2f 3d 3b bd 4e 3e 13 7d 91 bd 5b 49 95 3d
       0.042963225 0.20189373 -0.07103934 0.07289382
000190 34 43 b9 3c 7c 81 d0 bc ca be 12 bc 10 ba ec 3c
       0.022615053 -0.025452368 -0.0089566205 0.028897315
0001a0 0b d6 6c bd b4 f5 f2 3a 08 6d f4 bc e4 94 12 3c
       -0.057821315 0.001853636 -0.029837146 0.008946631
0001b0 ee a0 77 bd c1 4a 2e bd eb e0 b8 bc 4d 0a fd ba
       -0.06045621 -0.04255176 -0.022568187 -0.0019305438
0001c0 d1 2b ed 3d 8e a9 35 3c e5 3c 7e bb 83 b5 06 be
       0.11580623 0.011087788 -0.003879362 -0.13155179
0001d0 4f 2e 28 3d a3 94 08 3d c4 e4 82 3c 7c 09 37 3a
       0.04105979 0.033344876 0.015978225 0.0006982309
0001e0 f8 57 fb bc 27 9e 0e bd f1 4a 0f 3d e4 54 4c bd
       -0.030681595 -0.034818795 0.03498358 -0.049885646
0001f0 37 6e 8c bd 74 ef c7 3c 08 a7 bc bd 28 e4 5c bb
       -0.06856959 0.024406172 -0.09211546 -0.0033705328
000200 f7 b8 3b bd 77 2e 3b be c1 1b 0b 3e 8c 8b 8a bd
       -0.045830693 -0.18279444 0.13584806 -0.06764898
000210 c1 09 a4 bc 74 bb 13 bd 6f 97 5a 3d 7b 74 3e bd
       -0.020024182 -0.03606744 0.053367075 -0.046497803
000220 36 6a 93 3c e5 3c 38 bd 83 d0 75 3d 98 0c 9c bd
       0.017994981 -0.04497995 0.060013305 -0.076195896
000230 13 5a 04 3e c7 97 b9 3b c8 91 b9 bc c1 5c 78 bc
       0.12924986 0.005663845 -0.022652522 -0.015158833
000240 29 24 49 bd 65 3f f6 bd 03 3f 35 3c 36 08 f7 bc
       -0.04910675 -0.1202381 0.011062386 -0.030155282
000250 24 21 13 bd bf 7a 89 bc 85 a8 ca bc 3c a2 c3 bc
       -0.035920277 -0.016782163 -0.02473856 -0.02388107
000260 95 6a 6a 3d b5 0f 91 3d 2c 3d 90 bb 6d eb 27 bd
       0.05723055 0.07083074 -0.0044018235 -0.040996004
000270 60 a3 1c 3d a8 e9 45 3d e5 e0 f4 3d f8 e4 08 bc
       0.038241744 0.048318535 0.11956958 -0.008355372
000280 8a ec 52 bd 5f e1 8b bb c3 5d 87 bd 03 22 10 3e
       -0.051495112 -0.0042688097 -0.066096805 0.14075474
000290 c6 0e 0a bd 43 0c b4 3c 10 c5 91 bd de 36 46 3d
       -0.033705495 0.021978503 -0.07117665 0.04839217
0002a0 7b e4 58 3d 7e 0d ac 3c e7 29 0a bd 12 7f 1e 3e
       0.05295227 0.021002527 -0.033731367 0.15478161
0002b0 5d 37 cd bd 17 5d 6c bc 26 0c e1 bb ae 66 8c 3d
       -0.10020325 -0.014426491 -0.0068679033 0.06855522
0002c0 fe f4 89 3e f9 b8 19 bc e4 30 a2 bc a5 46 a4 3d
       0.26944727 -0.00938248 -0.019798703 0.08021287
0002d0 95 39 8e bd cd 37 72 bd 0a 6a 2e 3a af 37 3e bd
       -0.06944577 -0.059135247 0.00066533743 -0.046439823
0002e0 60 b0 ae 3d 63 a9 73 3a 46 c0 e8 3b 2f a1 7a bc
       0.085297346 0.0009294955 0.007102999 -0.015297218
0002f0 09 fe ba bd c4 8c ed 3d 80 79 b0 bd b0 be 92 bd
       -0.091304846 0.115991145 -0.08616924 -0.07165277
000300 a3 81 02 be f5 e3 8f 3d d5 c0 fb 3c 8a d0 0c be
       -0.12744765 0.07025901 0.030731598 -0.13751426
000310 6c 58 66 3e 39 da c8 3d 18 c7 96 3a 81 a3 4f 3d
       0.22494668 0.09807248 0.0011503426 0.05069304
000320 15 be 1c bd eb b8 cb 3b dc 5e 31 3d db 45 c7 bd
       -0.038267214 0.0062171123 0.043303356 -0.09730121
000330 c7 77 a6 bb c2 c0 a0 bc 6f 0e 06 3e cb 05 47 be
       -0.0050801965 -0.019623164 0.13091443 -0.19435804
000340 d3 14 9f bd 71 5e 3e bd 2f bf e9 3d 47 5b 54 bd
       -0.07767644 -0.046476785 0.114134185 -0.05184486
000350 2e 73 8a bd 82 57 47 bd 8e f0 65 3d 39 75 90 bc
       -0.0676025 -0.04866744 0.056137614 -0.017634021
000360 b4 b7 9b bd e6 66 00 bd 2c 01 b5 bc 6a 05 04 bd
       -0.07603398 -0.03134813 -0.022095285 -0.032231726
000370 5d be 0f 3e 80 82 83 bd aa 8f 4d bd 21 cb 0d 3e
       0.14037462 -0.06421375 -0.050185837 0.13847019
000380 e1 92 e0 bc 07 0d 81 bb a6 c0 17 3a 12 05 f1 bc
       -0.027413787 -0.0039383206 0.00057889 -0.029421363
000390 01 ca 4c bd da 20 c2 bc 04 81 82 3c ec b4 8a bc
       -0.049997333 -0.023697305 0.01593066 -0.016931973
0003a0 cd 27 73 bc 88 38 b1 3c 4b ba 82 3c 0f 6f 11 bc
       -0.014841032 0.021633402 0.015957972 -0.008876576
0003b0 92 c8 a9 3c c9 b4 28 bc 49 7c 03 bc 68 4e 58 3d
       0.020725522 -0.010297009 -0.008025237 0.05280915
0003c0 14 bf bf bd 7b 0b 48 bd 94 e9 04 bd 7a 57 02 3e
       -0.09362617 -0.048839074 -0.03244932 0.12728682
0003d0 41 c1 1c bd d6 fb b0 3d bc 03 4a 3b 74 17 b2 3d
       -0.03827024 0.08641784 0.003082498 0.086958796
0003e0 20 20 24 3e 01 77 0f 3d 2d 29 c8 bb d1 f8 e9 ba
       0.1602788 0.0350256 -0.006108424 -0.0017850642
0003f0 dc 94 35 3c 01 65 c5 3a f0 d2 97 3c 8e 19 61 bc
       0.011082854 0.0015060009 0.0185332 -0.013739003

4.bias f4 [24]
000000 89 4a 4f 3e e7 06 7b 3e a1 de 41 3e 3a 22 81 3e
       0.20243277 0.24514352 0.18932582 0.25221425
000010 2c 57 e1 3d 8b 36 38 3e 1a 7c 38 3e 09 da ef 3d
       0.11002955 0.17989556 0.18016091 0.11711509
000020 18 24 9d 3e 96 45 56 3e eb 85 81 3e 97 3b 9b 3e
       0.306916 0.20924982 0.25297484 0.303189
000030 27 78 69 3e cf e2 1e 3e d7 1a 49 3d 92 b9 0d 3e
       0.2279974 0.15516208 0.049097862 0.1384032
000040 e9 1b a2 3e 13 7f 64 3e 29 8c 5a 3e 12 73 c2 3d
       0.3166192 0.223141 0.2134253 0.09494604
000050 bb 21 f0 3e 49 28 e6 3e b1 e2 f0 3e 4b 1a 9e 3e
       0.46900734 0.4495261 0.47047952 0.30879435
