scripts/kaggle/AEFuzzy/weights/encoder_wts.pth (torch_old, 4826 bytes, 12 tensors)

0.weight f4 [16, 24]
000000 14 65 8d bd a2 6e 0f 3e 87 f4 0a be 4e 34 de bc
       -0.06904045 0.14007047 -0.13569842 -0.02712455
000010 40 98 d7 3d 78 c7 d2 bd 93 b1 f3 3d 8a 75 1c bd
       0.10527086 -0.10291952 0.11899104 -0.03819803
000020 e8 12 b3 be 0c 77 62 be 17 87 66 3e 99 c8 c0 3d
       -0.34975362 -0.22115725 0.2251247 0.09413261
000030 3e 13 6a be 4b 52 e2 3d 34 59 ab 3c ea a3 f1 bd
       -0.22858903 0.110508524 0.020916559 -0.11798842
000040 c8 75 e7 bd 60 4a 5f 3e c3 9b fb 3e 07 aa 96 3d
       -0.11301762 0.21805716 0.49142274 0.07356649
000050 ca b2 d7 3e 2d 9d 43 3e 68 6e 81 bd d4 6a 12 3e
       0.42128593 0.19102927 -0.063198864 0.14298564
000060 26 4d ba 3d 8f 90 e8 3c 4d 94 41 3d 30 e3 65 bc
       0.09096746 0.028389243 0.04726057 -0.0140312165
000070 5a 34 85 3d 95 fc fd 3c df d2 c0 3c 59 d4 fc 3a
       0.06504126 0.03100423 0.023538051 0.0019289359
000080 ce 2d 15 3d bb 54 00 bd ad 1b 47 be 5b 06 bf be
       0.036420636 -0.031330805 -0.19444151 -0.37309536
000090 4f 9b ce 3c 6e 33 f3 bd 04 f8 82 be 24 8a f8 3c
       0.025220541 -0.11875044 -0.25579846 0.030339308
0000a0 df 6a 2c bd 65 04 10 be 4b c2 5d be 91 09 95 3d
       -0.042094108 -0.14064176 -0.21656148 0.07277215
0000b0 e7 cd 0b 3f 4f 27 74 3e 04 92 51 3e d6 18 ce 3e
       0.5461106 0.2384312 0.20465857 0.40253323
0000c0 4a 50 6a bd 7c 95 7a bd a4 2b ad 3c b2 23 87 3e
       -0.057205476 -0.061177716 0.021138974 0.2639442
0000d0 d7 cc ae 3d 09 79 af be 22 75 9d be 47 22 bc 3c
       0.08535164 -0.3427203 -0.30753428 0.022965563
0000e0 9e ad 04 be 6a d1 0b be 95 28 b6 be 20 56 00 3f
       -0.12956855 -0.13654104 -0.35577837 0.50131416
0000f0 68 16 cc be b4 fe 85 3d 20 73 04 be b8 c5 c0 be
       -0.39860845 0.065427214 -0.12934542 -0.37650847
000100 96 62 bc 3d 1c b0 84 be 1d 01 4c be 5e c5 61 be
       0.09198491 -0.2591561 -0.199223 -0.22047946
000110 70 da 9b 3e a1 f6 98 bd e4 39 66 3d b2 c6 70 be
       0.30440092 -0.07468916 0.056207553 -0.23513296
000120 f9 63 4b 3e e8 29 0f bd 8d 58 ae bd 63 94 bf 3e
       0.19862355 -0.034952074 -0.085129835 0.37417898
000130 79 ac 9d bd 16 46 8a 3e 63 a1 ea bc 1f fc 05 bc
       -0.07698912 0.27006596 -0.028641408 -0.008177786
000140 ec ea 95 bd f9 bc 3a be 29 1e a4 3d ec cb fb 3d
       -0.073201984 -0.1823615 0.08013565 0.122947544
000150 7a 74 70 be 62 e9 2f 3e 82 5d ab 3c f0 37 4c be
       -0.23481932 0.17178872 0.020918611 -0.19943213
000160 94 ad 8b be f9 73 5f 3e 32 32 4d bd b3 fe fc bd
       -0.27280867 0.21821584 -0.050096698 -0.123532675
000170 25 be d2 3e 0b 09 e1 be e4 9e 9f 3d 3a 10 80 3e
       0.41160694 -0.43952212 0.07793978 0.2501238
000180 7f 70 78 be cd e8 25 bd a1 d4 e1 ba 22 71 e1 3d
       -0.24261664 -0.04050522 -0.0017229506 0.110079065
000190 d3 c6 b2 3c 9c 2d b0 bc c9 ec 24 bd 53 f6 86 3e
       0.021823322 -0.021506123 -0.04026488 0.26359805
0001a0 08 ee e7 bd d5 76 7f be 09 a9 4a bd f9 29 c6 bc
       -0.11324698 -0.24947675 -0.04947761 -0.024189936
0001b0 ee e7 da bd 4a b9 8a 3d 60 5e 8b bc d4 23 1a bf
       -0.10688768 0.06773622 -0.017012775 -0.6021092
0001c0 2f 62 26 bf 6a 1f 85 3e 42 36 82 3e a6 6b 55 3d
       -0.64993566 0.2600053 0.2543202 0.052104615
0001d0 8d 0e cd bc 21 73 83 3e a1 22 35 be fa c9 5c be
       -0.025031352 0.25673774 -0.17688991 -0.21561423
0001e0 c8 11 e0 3c b2 91 44 3e ca 9c 4d 3e b6 24 44 be
       0.027352229 0.19196203 0.20079342 -0.19154629
0001f0 5e 6e 4a 3e 4f 41 4c 3e 9c 5c 5d be 12 92 32 3e
       0.19768664 0.19946788 -0.21617359 0.17438534
000200 f6 2a 45 3e 1b 56 dc 3d bc f4 a5 bd ac 12 6c be
       0.1925467 0.10758611 -0.0810332 -0.23053998
000210 b3 8d 8e be a2 cb 50 3d ca 9c c8 3d bc 96 d2 3d
       -0.27842483 0.05097545 0.0979553 0.102826566
000220 26 0e 15 be 83 79 08 bf 7b 1c c6 3d ee ce 7d bd
       -0.14556178 -0.5331041 0.09673401 -0.06196492
000230 93 1b bd bd 15 d2 25 3e 47 41 b9 be 2e b5 92 3e
       -0.09233775 0.16193421 -0.36182615 0.28653854
000240 4f e0 aa bd 56 37 6b be d0 e3 df be 18 93 c8 3e
       -0.08343565 -0.22970328 -0.43728495 0.39174724
000250 fe 01 e7 3d 51 ad c2 3d 18 42 ff bd 73 43 5f bd
       0.11279677 0.09505714 -0.12463778 -0.054507684
000260 02 bc ba 3b a1 87 17 be b6 52 9a 3e a1 14 48 3c
       0.005698682 -0.14797832 0.30141228 0.01221195
000270 d0 a8 0d be 5a f3 53 3e fa 43 39 3e 76 20 3b 3e
       -0.13833928 0.206983 0.18092337 0.18274102
000280 14 c6 a1 3d e9 50 2f bd ed f2 e3 bd cf 26 e2 bd
       0.078991085 -0.04280177 -0.11130319 -0.110425584
000290 47 66 ae bc 8d 03 88 be 14 f5 e0 3e da 64 66 be
       -0.021289004 -0.2656521 0.4393698 -0.2249941
0002a0 fd df 12 3a c9 e5 76 bd 31 c3 f5 bd 60 d5 40 3e
       0.0005602835 -0.060277734 -0.120001204 0.18831396
0002b0 cd 0a ea bd e5 05 f3 3d 38 b2 e0 bb ae 4d d8 bd
       -0.11427841 0.11866359 -0.006857183 -0.10561691
0002c0 57 e0 35 be fa bd b1 3d 12 2a 45 3d b8 95 96 bd
       -0.1776136 0.08678813 0.048135825 -0.07352775
0002d0 c3 72 69 3d 10 e5 92 3e da 84 af 3a 70 fc 8e be
       0.05699421 0.28690386 0.0013391033 -0.2792697
0002e0 17 28 64 be 38 5e 88 3e 1e cb bb 3d a6 3a de 3d
       -0.22280918 0.26634383 0.09169601 0.1085103
0002f0 ba f4 04 bf f4 93 e2 bd 40 22 86 3e 17 6b 38 3e
       -0.51935923 -0.11063376 0.26198006 0.18009602
000300 d5 6f 8b 3d 8b c8 06 3e dd e3 a0 3e 32 69 53 3e
       0.0680844 0.13162439 0.31423846 0.20645598
000310 46 a6 c3 3d 34 c9 1f be 86 dc 81 3a 19 27 98 3e
       0.095531985 -0.15604097 0.000990764 0.2971733
000320 b0 4e 68 3e d8 08 93 be 2f ac ed bd fe 72 4c 3e
       0.22686267 -0.28717685 -0.11605107 0.19965741
000330 8d 2a 96 be 91 d1 10 3c 01 c3 d2 bc 8e 5b 2c bc
       -0.2932934 0.008839027 -0.02572775 -0.010519875
000340 71 35 53 bd ce be 71 3e 88 25 27 bd 1a c3 56 be
       -0.051564638 0.23607942 -0.040807277 -0.20972863
000350 cf 53 8e be 6f 80 82 bc bf 32 7c bd 8c a7 36 3f
       -0.27798316 -0.015930383 -0.061571833 0.71349406
000360 1a 96 1c 3e c3 5e 36 be 62 58 9f bd 0e 3a 5a be
       0.15291634 -0.17809586 -0.077805296 -0.21311209
000370 e7 c1 ab bd b7 cd 84 3c c0 00 ca bc 68 0a ad bd
       -0.08386593 0.016211374 -0.02465856 -0.084492505
000380 26 4e 1a be a8 14 50 3c 80 17 c4 3e 6e 3b 94 3e
       -0.15068874 0.012700237 0.3829918 0.2895159
000390 af fd d0 be f4 46 3c 3e 61 3f 36 3e fd 59 6a 3e
       -0.40818545 0.18386441 0.17797615 0.2288589
0003a0 83 40 5b 3d 87 48 04 be 8b 43 88 3e 64 60 8f 3e
       0.05352832 -0.12918292 0.2661403 0.28003228
0003b0 ea 0a 8f be b0 94 97 3e e3 93 6f 3e 90 a7 4c 3d
       -0.27938014 0.29605627 0.23396258 0.049964488
0003c0 6d 5a 1f 3e a8 c4 a9 3e 5f f0 0b be a1 4c 38 3e
       0.15561838 0.3315785 -0.13665913 0.17997982
0003d0 7b 91 a8 bc e0 06 2d 3e 58 ad 37 3e c4 f4 3f 3e
       -0.020577183 0.16897154 0.17937219 0.18745714
0003e0 2e 01 cf be c0 a8 52 be 11 be d5 3d 74 f6 4f 3e
       -0.40430588 -0.20572186 0.10436643 0.20308858
0003f0 85 69 98 3e c0 6a 18 be 13 75 d0 bd 9d 59 d8 bd
       0.29768005 -0.14884472 -0.1017858 -0.105639674

0.bias f4 [16]
000000 da 49 f5 b5 cb e0 66 b6 c7 53 37 b5 34 1b d8 b5
       -1.8275416e-06 -3.4403517e-06 -6.8294725e-07 -1.6101171e-06
000010 ef 6b bf b5 5e cb 8b 35 2e 79 3c b6 85 44 14 36
       -1.4262022e-06 1.0415495e-06 -2.808472e-06 2.2093602e-06
000020 30 79 07 36 5d 55 5d 36 7c 7e 23 36 7e 47 81 35
       2.0187108e-06 3.2981254e-06 2.4362516e-06 9.632056e-07
000030 8d 0f ab 35 95 6f d4 b5 fd bd fb b3 54 c8 d5 b5
       1.2745019e-06 -1.5827706e-06 -1.1722657e-07 -1.592804e-06

1.weight f4 [16]
000000 26 f2 6b 3f b7 c6 73 3f 4a 0c 4f 3f 09 5d 82 3f
       0.92166364 0.9522509 0.80878127 1.0184642
000010 e7 b9 74 3f 3c 3e 89 3f de 11 88 3f f8 5b 5f 3f
       0.95596164 1.0722117 1.0630453 0.8724971
000020 44 77 8e 3f 37 19 7e 3f cd af 7b 3f 0f 0d 7a 3f
       1.1130147 0.99257225 0.98315126 0.97676176
000030 ca 30 6a 3f 04 2e 87 3f 53 61 83 3f 0b e3 8a 3f
       0.91480696 1.0560918 1.0264076 1.0850538

1.bias f4 [16]
000000 6e ab f4 bc 08 f3 cd bd 3d 64 b3 bc 17 d3 d0 bc
       -0.0298669 -0.1005612 -0.021898383 -0.02549128
000010 a4 13 3c 3d f6 ad 17 3d 95 80 34 bd d1 39 d4 3b
       0.04591717 0.037031136 -0.044067938 0.006476619
000020 6c 50 6d 3d e1 e1 24 3c 00 4f 9b bd d3 25 7a 3c
       0.057938024 0.010063619 -0.075834274 0.015267807
000030 43 2f b7 bd 2e 14 19 bc ca d5 51 bd 46 8f 15 bd
       -0.08944561 -0.00934319 -0.051229276 -0.03651359

1.running_mean f4 [16]
000000 1e e7 bc 3e 96 dd 06 3f ce bd 54 be f8 be 28 3e
       0.36895078 0.52681863 -0.2077553 0.16479099
000010 11 69 bb be cd 77 37 be b5 b9 2b 3d 68 db 26 be
       -0.36603597 -0.17916794 0.04192515 -0.16294634
000020 ee 88 87 3e 98 78 4f 3e d2 ba f9 3e 31 d0 2e bf
       0.26471657 0.20260847 0.48775345 -0.68286425
000030 37 3b eb bd 4c 73 56 be e2 e5 61 3e 84 fc ac 3e
       -0.11485904 -0.2094242 0.2206035 0.33786404

1.running_var f4 [16]
000000 e0 b3 2c 3e f4 89 47 3e e2 1d 1d 3e 00 77 42 3e
       0.16865492 0.19486219 0.1534343 0.18990707
000010 04 32 8d 3e 91 16 df 3d 19 c4 19 3e 90 ab 1f 3e
       0.2757722 0.10892976 0.15016212 0.1559279
000020 b8 f4 3b 3e e1 c9 26 3e b4 88 a1 3e f7 d3 c5 3e
       0.18355072 0.16287948 0.3154961 0.3863828
000030 ee 7d d9 3d dc 90 02 3e 20 0a 36 3e 3a 86 1a 3e
       0.10619722 0.12750572 0.177773 0.15090266

4.weight f4 [8, 16]
000000 ac d7 ca 3c 20 7f 99 be 18 ff 42 bc 84 a2 0c be
       0.024761043 -0.299798 -0.011901639 -0.1373387
000010 e3 2c 0e 3f 2c fa 59 3e e3 d4 90 be ce 32 fa 3c
       0.5553724 0.21286839 -0.2828742 0.030541804
000020 bb b1 f2 3d cc 36 79 bc 1e 84 27 bf 2c be a5 bd
       0.11850306 -0.0152108185 -0.6543597 -0.08092913
000030 a5 28 7f be 8e 4c 29 be 26 e9 bf 37 55 21 02 be
       -0.24917848 -0.1653311 2.2877543e-05 -0.12708028
000040 9a 2f c0 bd 4e 5e ed 3e ad 56 cc be 2a af 52 3e
       -0.09384079 0.4636101 -0.39909878 0.20574632
000050 38 9a 96 3d 60 00 72 bd 14 41 93 3e 67 4c 1a 3f
       0.07353634 -0.05908239 0.28760588 0.6027283
000060 4c 62 8c 3d 2e a9 90 bd d5 16 a6 bd 8d 24 39 be
       0.06854686 -0.070635185 -0.081098236 -0.1808035
000070 af 22 06 bf e3 75 da bd 56 d0 2c 3f 03 e1 c6 3d
       -0.5239667 -0.10667016 0.67505395 0.09710886
000080 f8 48 19 bf c5 da a7 be 0b 4c 66 bd cb 9c 18 bf
       -0.59876966 -0.32784095 -0.056224864 -0.5961425
000090 97 c3 f3 be 73 af 14 3e 5b 19 89 3d 88 9c d5 bd
       -0.4761016 0.14520054 0.06694289 -0.104302466
0000a0 27 7a 97 be 8f 46 11 be da 85 41 bd 6a 45 49 be
       -0.29585382 -0.14187072 -0.04724679 -0.19655386
0000b0 52 5f 50 be de d3 42 3d 3f 1f da 3c 1a 94 46 be
       -0.20348862 0.047565334 0.026626227 -0.19392434
0000c0 bc b7 5c be 52 44 e1 3b b2 bd 2e 3e 83 a9 07 be
       -0.21554464 0.0068745995 0.1706455 -0.13248257
0000d0 fe 87 28 3e 35 2d 85 be 44 9f 8e be 8e 35 05 be
       0.16458127 -0.26011053 -0.27855885 -0.1300871
0000e0 b7 64 7f 3e c5 fb 21 bf 9c 86 bb 3e 0d 37 87 be
       0.24940763 -0.63274795 0.36626136 -0.26409188
0000f0 2c a0 bc be 9c c6 1b 3e 96 59 b2 be 75 0c 80 3e
       -0.3684095 0.15212482 -0.34833974 0.25009504
000100 a1 d7 57 3e 55 f4 99 bd f6 2b 87 3e f2 44 e3 3d
       0.2107835 -0.07517306 0.26400727 0.11097135
000110 4e f9 9a 3e 72 81 87 be 7a b3 8b 3e e5 3e 86 be
       0.3026833 -0.26465946 0.27285367 -0.2621986
000120 ef 40 2a bf 40 93 cf be 3b f5 c5 be e4 29 73 3e
       -0.6650533 -0.4054203 -0.38663658 0.23746449
000130 de a2 1f 3d b6 83 f7 3d 2a 61 fe 3d bf 5e 14 bc
       0.03897368 0.12085669 0.12420876 -0.009055792
000140 c8 7f 9f bd a7 bb 31 be 9f 4e 89 bc 2b 27 f3 3e
       -0.07788044 -0.1735674 -0.016761122 0.4749082
000150 26 5d a7 be b6 8a 7c 3e 6e ad e6 3d 70 ca 88 be
       -0.32688254 0.24662289 0.11263548 -0.26716948
000160 3c 49 59 3e 1b f8 84 be a6 9c ef bd d6 51 86 3e
       0.21219343 -0.2597054 -0.116998 0.2623431
000170 6e ce cc be d4 4f d2 3d 85 70 40 be b6 de 33 bf
       -0.40001243 0.10269132 -0.18792923 -0.70261705
000180 cf 5f eb 3d b2 87 f1 bb 00 5c dd be 82 c7 96 bd
       0.114928834 -0.0073709125 -0.43234253 -0.07362272
000190 99 84 b5 bd af a6 49 3e 29 b9 d6 be fe d8 1d be
       -0.088631816 0.19692491 -0.4193814 -0.15414807
0001a0 1c bb 02 be 2e 2f eb bd f8 4b 3f 3e 2b 71 fe 3e
       -0.12766689 -0.11483608 0.18681324 0.49695715
0001b0 46 81 52 bd 5d ce 09 3f 2f 14 e5 3d 7a d4 c4 3d
       -0.051392816 0.5383051 0.1118549 0.09610839
0001c0 30 f1 7d be 6c c8 2b bf 9e 86 94 bd 35 fe e7 bc
       -0.24799037 -0.67102695 -0.07252239 -0.028319458
0001d0 40 f9 ad 3d d3 df 6e be 4b 3e 72 3e 9f 0b ed 3e
       0.08494806 -0.2332757 0.23656575 0.4629793
0001e0 6c d3 f8 3d 74 04 70 3d 87 17 8f 3d f0 17 1d 3e
       0.121497005 0.058597997 0.06986909 0.15341163
0001f0 81 14 7e 3c ef b4 ba 3e 30 4a 6c be fa 92 0d be
       0.015507818 0.36466166 -0.23075175 -0.13825598

4.bias f4 [8]
000000 ca 18 81 b5 53 83 34 32 7f 0e 64 35 0d 6c 5b b5
       -9.618464e-07 1.0507239e-08 8.4957713e-07 -8.174109e-07
000010 14 6a f8 34 e4 80 9d 34 d5 a3 4a b4 bf cc 45 34
       4.6270782e-07 2.933731e-07 -1.8872318e-07 1.8421541e-07

5.weight f4 [8]
000000 8b 5c 86 3f cf c9 5f 3f df eb 6f 3f b6 37 73 3f
       1.0496992 0.8741731 0.93719286 0.95006883
000010 84 cf 80 3f 2f 15 7c 3f 05 d4 99 3f 7a 70 79 3f
       1.0063329 0.98469824 1.2017828 0.9743725

5.bias f4 [8]
000000 3d 3d 1b 3d be dd 1d 3e a5 49 b3 3d c1 af 8e b9
       0.0379002 0.15416619 0.08754281 -0.00027215297
000010 57 4b f3 3d c5 9c d7 3d af 67 8a 3e 7b 85 1a 3d
       0.11879604 0.10527948 0.2703223 0.037724953

5.running_mean f4 [8]
000000 79 1e 38 3e df 9b 98 bc a3 15 80 ba 46 ed 00 3d
       0.17980374 -0.018629013 -0.0009772073 0.03147628
000010 c3 5b 73 bd 56 c6 16 3e 7e e6 e5 3b 24 9f f2 3d
       -0.059413683 0.14724097 0.007016002 0.1184676

5.running_var f4 [8]
000000 de b3 05 40 3d d2 66 40 0d c4 0e 40 aa 76 0b 40
       2.0891032 3.606582 2.230716 2.1791177
000010 a4 f0 47 40 35 ac 60 40 cc 56 2e 40 e9 7d 13 40
       3.1240625 3.5105107 2.7240477 2.30456
