scripts/kaggle/AEFuzzy/weights/weights.pth (torch_old, 52828 bytes, 34 tensors)

encoder.0.weight f4 [16, 24]
00000000: 0c15 08bd 780c 93be 0da9 28bc 36d8 1d3d
00000010: 1f3b 503e 51e0 c33e 804a 1d3e 95b1 b1be
00000020: 45db 11be 1ed7 c83c 99c7 fe3c fd37 65bd
00000030: 9361 4ebd 9730 5fbe dcdc 2ebe e7f9 27be
00000040: c89b ae3b a947 9b3d 9b71 5f3d 806f 993e
00000050: f485 463e 2e0d f2bc 26e3 fa3d 51b3 ce3c
00000060: abd2 013d 59e5 0dbe b918 42be e1fd dd3d
00000070: 4d42 513e b32a d93c b702 923d a2a2 143e
00000080: 86ee 9fbe ee6a ec3d cd94 2d3e 8de2 063d
00000090: 8f67 a4bd 0020 3abe a3d4 4ebe 2d56 213c
000000a0: ebec f23d 3be9 edbd 7255 ab3e 43c4 a53b
000000b0: 6222 5a3e 03ce 2a3d 8de4 39be a05f d23d
000000c0: cafa f13d 4deb 403d 690d 50be debb 653e
000000d0: cd16 e3bd 5dba 553e 8434 023e e7bb 193e
000000e0: fd39 933e 50c9 7a3c 333d 593d f44e e73d
000000f0: 8952 bd3d 6138 ce3d 16c8 97be c75f 0f3e
00000100: 1386 babd 67b0 68bd a4af 233e 6ed9 68be
00000110: 8710 3e3d 4bad 2f3d 798d 033d cff4 663e
00000120: 9f6e 9cbe 376a fa3c 89be 1e3d fed3 19be
00000130: 9d2d 80bd 03aa 29be d6af e3bc 7360 4a3e
00000140: 9805 32be a83c f0b9 30ac b3bd cd6d 903e
00000150: f76e b93d 12cf 553d 1e04 843d cc98 c23c
00000160: adb4 d03d 1449 1b3e 495f 3fbc a735 0cbe
00000170: 55d2 46bd 0cbb b53e 0d0b 2f3d 1858 e1bd
00000180: a2c5 d33d a2a5 e53c cfa1 593d fb5a a9bd
00000190: d246 bebd 8cf9 4c3d 04f8 b33d 0413 613e
000001a0: efdb febe 17c6 0bbe ec6e 8e3c 4d03 cdbd
000001b0: 7ff2 e4bd 7926 d0be 3af5 27be 5b8c 2a3d
000001c0: 976f 4dbe cb1b a93d ca19 6cbb bae7 99bd
000001d0: 7c17 5b3d 7e74 bdbd 8449 66bb 5ec1 80bd
000001e0: 8960 56be 64d5 ccbd 7ed6 9a3c 25e9 adbb
000001f0: c406 f6bd 96a8 1f3e 849b 263d f6fa 42bd
00000200: 176f 453e 514b a8bd f73d 9039 c739 d13d
00000210: 52fd 7b3d 8344 8e3e 3331 adbe 2667 7d3e
00000220: 2bd1 5d3e 7f85 0ebd a26e 01be 5d00 743d
00000230: 4074 143d ebf4 adbe 8f2c 77be cfe7 0e3e
00000240: 8ebb 23be b5fc 83bc 943e 1d3d 1cce ba3c
00000250: 76a8 ac3c f212 e9bd 7852 73be 4e69 8a3b
00000260: 8084 ba3d e1d5 613e cfa5 96be 598a 1dbc
00000270: 1a72 e03b 70c3 7f3d d082 0fbe 4085 553d
00000280: 27f8 a3bc a355 873c e86e 36bc 3e7f 89bb
00000290: fc97 eebd 554a 45be 87e3 63be 36d1 c7be
000002a0: 04a8 13be 54e5 6abe c5a0 6cbc 5777 893e
000002b0: 85f5 8c3e 2a56 7ebd 022e f8bd cebe 2fbe
000002c0: 61cc 873e 432d 993e 7527 fb3d 661a 3e3b
000002d0: ce04 89bd 1cd0 03be c485 683d 9077 e2bc
000002e0: e304 353d 4f09 cbbd 5367 8c3d db95 b13b
000002f0: 2181 483c b829 f33d 53a7 b03c d1e2 50be
00000300: 6bcf eb3e 38e6 8fbe ee98 6abe 0d3e 123e
00000310: 4bee af3d c75f 8ebd 018c ffbd f456 c2ba
00000320: 7d42 363d 1dc9 e33d b340 9d3c 6081 b9bc
00000330: a1ff 79be ff51 033e 13f0 e73c f475 733e
00000340: aff0 a93d 7ca9 053d 6a31 62be 8e02 0abd
00000350: 8adc a13d c0f0 963d 2973 04be b95e 2a3e
00000360: d638 79be b4b2 6cbd cdd7 003e 7f10 f4bb
00000370: 46f9 f7bd c1eb 1bbe 89ce a63d abab 143e
00000380: fed2 67be 2b02 1b3e 66a5 8abe acd2 b93d
00000390: 3128 82bd c392 bfbd 112b d9bd c6c5 28be
000003a0: f621 4f3e 6ebc 4fbd c97e 1d3e 45e6 5b3e
000003b0: 6c7d 7c3e 4da0 0b3e ca5c e6bd d674 53be
000003c0: 400b 01be 44eb 9fbe 31fe d13d 5faa 173e
000003d0: c537 993e d437 8b3e 668d afbd 2165 753d
000003e0: 82f5 c73c fd9b 2e3d 26ee 8f3e 9959 bd3d
000003f0: 0b22 033e 3bcc 843d de4c 5b3d 46b0 b6bc
-0.033223197 -0.2872045 -0.010294211 0.038536273 0.20335053 0.38257077 0.1536045 -0.34705797
-0.14243801 0.024516638 0.031101035 -0.055961598 -0.050386023 -0.2179588 -0.17076439 -0.16403924
0.005328629 0.075820275 0.054551702 0.2996788 0.19387037 -0.0295473 0.122503564 0.02523199
0.03169505 -0.1385702 -0.18954743 0.10839439 0.20435448 0.026509618 0.07129424 0.14515164
-0.31236666 0.11543833 0.16951294 0.0329309 -0.08027565 -0.1817627 -0.20198302 0.009847206
0.11861595 -0.11616751 0.33463627 0.0050587966 0.21302179 0.041700374 -0.18153591 0.10272145
0.11815412 0.0470994 -0.20317616 0.22434947 -0.11088333 0.20871873 0.12715346 0.15013085
0.2875518 0.015306786 0.05303688 0.11294356 0.09244258 0.10069347 -0.2964484 0.1400138
-0.09107604 -0.056808855 0.1598497 -0.22739193 0.04640248 0.042889874 0.03211734 0.22554325
-0.30553147 0.030568225 0.038755927 -0.15022275 -0.062587 -0.1656876 -0.027793806 0.19763355
-0.17384946 -0.0004582156 -0.087730765 0.2820877 0.09054368 0.05219943 0.06446098 0.0237545
0.10190711 0.15164596 -0.011680433 -0.13692342 -0.048540432 0.35494268 0.04273515 -0.11003131
0.1034043 0.028033081 0.05313283 -0.08269306 -0.09290852 0.050042674 0.087875396 0.2197991
-0.4977717 -0.13649784 0.017386876 -0.10010395 -0.11179065 -0.40654352 -0.1640214 0.04163776
-0.200621 0.08257254 -0.0036026114 -0.075149015 0.053489193 -0.09250735 -0.0035139034 -0.06286882
-0.20935263 -0.100016385 0.018901106 -0.005307334 -0.12013009 0.15591654 0.040675655 -0.047602616
0.19280659 -0.082174905 0.00027511988 0.10216098 0.061520882 0.27786645 -0.338266 0.2474638
0.21661822 -0.03479528 -0.1263986 0.05957066 0.036243677 -0.3397592 -0.24138092 0.13955615
-0.15989515 -0.016111711 0.038389757 0.022803359 0.021076422 -0.11380567 -0.23761928 0.004223979
0.091073036 0.22054245 -0.29423377 -0.009615504 0.0068495395 0.062442243 -0.14014745 0.05212903
-0.02001579 0.016520327 -0.011134841 -0.0041960767 -0.116500825 -0.19266637 -0.22254764 -0.39026803
-0.14419562 -0.22939044 -0.014442627 0.26848862 0.27531067 -0.06209389 -0.1211815 -0.1716263
0.26523116 0.29917344 0.12263385 0.0029007434 -0.066903695 -0.12872356 0.056768194 -0.027644902
0.044194113 -0.09913885 0.06855645 0.0054194755 0.012237818 0.118731916 0.021564161 -0.20399024
0.46056685 -0.2810533 -0.229099 0.14281483 0.08590373 -0.06951862 -0.124778755 -0.001482694
0.044497002 0.11122344 0.01919589 -0.022644699 -0.24413921 0.12824248 0.028312718 0.23775464
0.0829786 0.032632336 -0.22089162 -0.033693843 0.079033926 0.07370138 -0.12934555 0.16637696
-0.24338087 -0.057787612 0.12582321 -0.0074482556 -0.12108092 -0.15226652 0.08144862 0.14518611
-0.22639081 0.15137546 -0.27079314 0.090733856 -0.06355322 -0.093541645 -0.106039174 -0.16481695
0.20227799 -0.05071681 0.15380396 0.2147456 0.2465722 0.13635369 -0.11248167 -0.20650038
-0.12601948 -0.3123418 0.10253561 0.14811085 0.2992536 0.2719103 -0.085718915 0.059910897
0.02440906 0.04262923 0.2811138 0.09245605 0.12805955 0.06484266 0.053540103 -0.02230085

encoder.0.bias f4 [16]
00000000: 0254 f5b9 682d eb38 5bea 76ba 2c18 dcb8
00000010: b96e 8d39 f16a f2b8 7a2a dfb9 a4d1 5c38
00000020: c44c 85b8 8a11 4fb9 8ece 5aba 7431 9eb9
00000030: 9c6a a7b6 b4dc 8439 0baf e239 fd01 e4b9
-0.00046792632 0.00011214131 -0.0009419077 -0.0001049492 0.0002697611 -0.000115593786 -0.00042565522 5.264733e-05
-6.356233e-05 -0.00019747592 -0.0008346819 -0.00030172954 -4.989399e-06 0.0002534144 0.00043236496 -0.0004348903

encoder.1.weight f4 [16]
00000000: 58ad 083f 181d ad3e 2e82 3f3f 4fa8 c13e
00000010: 6acc 193f a871 143f 38a1 ed3e 7ae9 143f
00000020: 9d73 783f 6b42 2c3f de24 2b3f 861c 253f
00000030: 47e0 c23e a2da 7f3e 5717 4f3f 7876 a83e
0.533895 0.3381126 0.74808013 0.37823722 0.60077536 0.57985926 0.46412063 0.58168757
0.9705141 0.67288846 0.6685313 0.6449665 0.38061735 0.24985746 0.8089499 0.32902884

encoder.1.bias f4 [16]
00000000: 51d0 d7bc 6bcb 843d a51c 58be 1c9f 97bd
00000010: 8ed3 8dbe 79d9 3cbe 14b3 f6bd 83b6 c6be
00000020: b81b d0bd 217c 45be fe98 0abf 51da eabd
00000030: dd4b 0cbd 18f1 7b3a 7f83 cfbe 6bfd 05be
-0.02634445 0.064841114 -0.21104677 -0.074033946 -0.27700466 -0.18442334 -0.12045875 -0.3881112
-0.10161537 -0.19285633 -0.541397 -0.11467422 -0.034252036 0.0009610816 -0.4053001 -0.13084953

encoder.1.running_mean f4 [16]
00000000: 8f43 ca3d dbe0 d33d c690 eb3e 7a0c 003e
00000010: 9c10 bfbe 9a6d 83bd 3001 01bf 3d4a f03d
00000020: dda2 da3d a76c dabc d07d ab3c 40e9 76bd
00000030: 4119 6c3d bae4 b13b 6f01 a3be 7a61 9a3d
0.09876167 0.10345622 0.4600889 0.1250476 -0.3731736 -0.06417389 -0.50392437 0.1173291
0.10675595 -0.026663138 0.020934016 -0.06028104 0.05764127 0.0054288777 -0.3183703 0.075381234

encoder.1.running_var f4 [16]
00000000: 4fa6 5f3d 5710 933d db0d 083d c999 b03d
00000010: 306a 023e 899b cd3d 59ae c03d 0179 293e
00000020: fdf3 b03d 7584 d53d bcf9 d83d 388b 3a3d
00000030: dc5b aa3d af45 a53d e9fe 983d 39a2 333e
0.054601964 0.07180851 0.03321634 0.08623082 0.1273582 0.100394316 0.09408254 0.16550066
0.08640287 0.10425655 0.10594508 0.045542926 0.08318302 0.08069932 0.07470495 0.17542352

encoder.4.weight f4 [8, 16]
00000000: 963e 183e 662e a53d f077 41be a44f f93d
00000010: 45e8 a2bd 0333 5cbe 9ba8 423d 060b 673e
00000020: f8e6 d1bd f3b0 af3c 8eab cb3e b576 523e
00000030: cd9c 793e c71a c5be 068c 573e fad8 543e
00000040: 128d abbd 5b7a f1bd 292d 483d 8568 97be
00000050: 5a96 8cbb bf62 2abd 40d8 98bd 393d 6f3d
00000060: 3e29 633c e34c 06bf fe25 2f3e 84a1 633d
00000070: 0fd4 2dbc 3ceb 993e d242 58be 8c49 2bbe
00000080: c542 633d bd37 383e 855b f6bd d33a 2ebf
00000090: 0909 763d 531d a83e 86d9 5a3e 2d2a d03c
000000a0: 4b70 2d3e fcac 2cbe 05f2 13bd e916 20bd
000000b0: b1ff 84bd d61a 143d d60e 0ebe f1da ccbc
000000c0: 4b11 8e3d 21ae 8b3c 5b9c 393d c192 6fbc
000000d0: 8e47 b43e 0ba6 133e e0d9 1dbe 0cf1 cfbe
000000e0: 39fa a9bc 2848 933d ecdb cfbc 13d9 443e
000000f0: 5321 e0bd be32 30bb 9d0e e13d 4067 04bf
00000100: dd5e bbbd d281 c9bd b663 88be 479e 503e
00000110: 6b01 013e 08f2 003d 2922 ad3e e13f d23d
00000120: 293b 97be f185 623e 82b4 113e e215 203b
00000130: fcde 41be a3a9 e9bd c6cf 223e f6ba 81be
00000140: 456c 9bbe 2d69 c8be 728a 9dbc 8a43 193e
00000150: 6621 7ebe 275f 7a3d 0e37 6f3e 93b9 94bd
00000160: f677 54bd af16 2bbe 54ae 843d ec10 03be
00000170: f45d 7f3e ffb3 3a3e dda3 853d a000 543e
00000180: 9724 943c 6514 613e 4394 343e 42c2 3f3d
00000190: c2c7 40be 2e2d 283e 78a6 a33d a7d9 8f3e
000001a0: 0447 19bc e3e1 313e 3d64 a43e d5da 143e
000001b0: b4ce 12bc a5b7 bc3d 0de3 f93c 20c5 053e
000001c0: b73f b53d 65d4 4b3d 8875 113e 59a2 b5bd
000001d0: a25d 40bc 8d51 6e3e c483 eabd 168f a33d
000001e0: 2eea c0be b238 ff3c 9c78 17bd 6a70 3e3a
000001f0: 8896 703e 9457 b0bc ef5b ab3e 3518 33be
0.14867625 0.080654904 -0.18893409 0.12173393 -0.07954458 -0.21503834 0.047524076 0.22562799
-0.10249132 0.02144668 0.39779323 0.20553096 0.24376221 -0.38496992 0.21049508 0.20785895
-0.083765164 -0.117909156 0.048871193 -0.2957193 -0.0042903842 -0.041598078 -0.074631214 0.058407996
0.013864813 -0.5246107 0.17104337 0.055573955 -0.010609641 0.30062282 -0.2111924 -0.16727275
0.0554836 0.17990012 -0.12029175 -0.6805851 0.06006721 0.32834873 0.21372041 0.025410736
0.16937368 -0.16862863 -0.03611948 -0.03908435 -0.06494082 0.036158405 -0.13872847 -0.025006743
0.06936892 0.017050805 0.045315128 -0.014622391 0.35210842 0.14418809 -0.15415144 -0.40613592
-0.020749198 0.07191497 -0.025373422 0.19223432 -0.10943856 -0.0026885713 0.109891154 -0.51720047
-0.09148953 -0.098392144 -0.26638573 0.20372878 0.12598197 0.03148082 0.33815125 0.1026609
-0.29537323 0.22121407 0.14229015 0.0024427106 -0.18932718 -0.11409309 0.15899572 -0.25337952
-0.3035604 -0.39142743 -0.019231055 0.1496717 -0.24817428 0.0611259 0.23360845 -0.07261958
-0.051872216 -0.16707872 0.06478563 -0.12799424 0.24938184 0.18232726 0.06525395 0.20703363
0.018083854 0.21980436 0.17634682 0.046816118 -0.18826202 0.16423485 0.07990736 0.28095743
-0.00935531 0.17371325 0.32107726 0.14536603 -0.008960415 0.09214715 0.030503774 0.13063478
0.08850043 0.049763102 0.14204991 -0.08868856 -0.011741074 0.23273297 -0.114509135 0.07986276
-0.37678665 0.031154964 -0.036980256 0.0007264676 0.23494923 -0.021526136 0.33468577 -0.17489703

encoder.4.bias f4 [8]
00000000: 5f2d 37ba d4c2 20b9 e92b 1839 5b12 a2b9
00000010: c478 ccb9 dae9 36b9 6e77 ecb7 1a08 3db9
-0.0006987657 -0.00015331368 0.00014512207 -0.00030912724 -0.0003899989 -0.00017443989 -2.8189006e-05 -0.00018027463

encoder.5.weight f4 [8]
00000000: 4b7b 103f 7045 973e 02ba 8c3e c343 313f
00000010: d9d2 c43e ceda 293f e966 603e 36ff 733e
0.5643813 0.29545164 0.27485663 0.6924402 0.38442114 0.66349494 0.21914257 0.23827824

encoder.5.bias f4 [8]
00000000: dc17 65bd 3b79 923d f7d8 1b3e ee55 4d3d
00000010: cf0c 5a3e f376 ba3c b200 013c 621b 903c
-0.055930957 0.07152029 0.15219484 0.050130777 0.21293949 0.022761798 0.007873701 0.017591182

encoder.5.running_mean f4 [8]
00000000: dd12 e73c 7f51 fcbd 9cb1 d73c 0da1 483d
00000010: 4aa6 c4bd c296 cdbd 4cfc 2a3e 7568 b139
0.028207237 -0.12320232 0.026329808 0.048981715 -0.096020296 -0.100385204 0.16697806 0.00033837897

encoder.5.running_var f4 [8]
00000000: ec2f 073e a87d a73d 7000 eb3d ef8a d33d
00000010: 0706 283e 0752 da3d 00b1 0b3d 0800 6e3d
0.13201874 0.08178264 0.11474693 0.10329234 0.16408549 0.10660177 0.034104347 0.0581055

decoder.0.weight f4 [16, 8]
00000000: 2d6b c1be 0c5d 13be 75cd 48be efd5 6e3c
00000010: b5de 233c 161b 1ebc 8ba5 babe 19d3 dbba
00000020: 9a79 743c cc67 243e a34f 1dbe d233 53be
00000030: 01bb ad3e fda3 bbbd 1daa 12be 8374 2cbf
00000040: 48aa 673d 4cf1 b03d 72b5 d23c 4846 353e
00000050: c15a bfbd aaf7 67bd a00c 02bf 038d 97bc
00000060: 319c 093e 52f5 f1be f23d 823e 3723 6cbd
00000070: dff1 b6bd 20db 5cbd 4817 c2be 18ba 8e3d
00000080: 3375 d0be c715 4fbe 68c9 5d3e 267a 4cba
00000090: 0bf2 c93d 2a59 9e3b e79b 903d 207b 573e
000000a0: c656 333e adbb bebc fa84 21bf 1ab1 d23b
000000b0: 0650 4dbe 1ec1 47bd 4514 1b3d b5f3 e6be
000000c0: 30ef 20bd 2d44 88be 7748 a4bd dbda 28bc
000000d0: 3163 90be 2e4c ac3d de4f ec3b f2cb cdbd
000000e0: 456c 903d 4937 023e f62b acbb bb81 b4be
000000f0: 53ae 1bbe 4805 83bd adaa 5ebd 401b b53e
00000100: aaa1 51be 129b a03e 4335 4dbe 7206 133d
00000110: e5e2 32be d7f4 1c3d b3f5 103e 7b3b 163e
00000120: 02e5 0abe 5398 aa3c 169a d2be e17c 7ebd
00000130: e44b cabd 3e79 9ebe f6ba d0bd 5064 8f3e
00000140: 8085 203e 39c5 31bd 15ad dbbb e5ab 8a3d
00000150: b25b f2be 609b 2b3c a774 9bbd 553e d0bd
00000160: 2350 9fbd 21ad 22bf a847 943d 16df 243e
00000170: 9847 173d fa40 c83d eede 6f3e 26a6 03be
00000180: 0766 7fbc d71a 193d ee0a 29bf d340 9cbb
00000190: ce3f d5bc b44e ce3c 2e58 87be 541b bb3e
000001a0: 4f90 53be a302 aebd 55db f63d 1406 dabe
000001b0: 483a 943d cdfa a53c 5090 1f3e 2e2a b93e
000001c0: 7f12 aabd 860d e5be 57cc 913d 715f 8bbe
000001d0: 7d84 72be 2926 58be f4e7 1b3e def6 963e
000001e0: 4128 2ebd 43a7 13be 8f2b b53d 5d2f 09bd
000001f0: 9f0c bfbc 71c6 14bf 3d20 853e f172 84bd
-0.3777708 -0.14390963 -0.19609626 0.014577373 0.010001828 -0.0096500125 -0.36454424 -0.0016771286
0.01492157 0.1605522 -0.1536241 -0.20625237 0.33931735 -0.09162138 -0.14322706 -0.6736528
0.056558877 0.08639774 0.025721285 0.17702591 -0.09343482 -0.056632675 -0.50800514 -0.018499857
0.13438489 -0.47257477 0.25437886 -0.05765077 -0.08932852 -0.05391991 -0.37908387 0.06969088
-0.40714416 -0.20223151 0.21658862 -0.0007800184 0.09860619 0.0048324065 0.07060986 0.21043062
0.1751357 -0.02328285 -0.6309353 0.0064298036 -0.20050058 -0.048768155 0.037861127 -0.4510781
-0.039290607 -0.26614514 -0.08021634 -0.010306085 -0.28200677 0.084129676 0.0072116693 -0.10048665
0.07051901 0.12716402 -0.005254264 -0.35255226 -0.15203218 -0.06397492 -0.054361988 0.35372353
-0.20471826 0.3136831 -0.20039849 0.03589482 -0.17469366 0.038319435 0.14156227 0.14671127
-0.13563922 0.020824587 -0.41133183 -0.062130813 -0.09877756 -0.30951875 -0.1019191 0.2800622
0.15675926 -0.043400977 -0.0067039826 0.067710675 -0.47335583 0.010474056 -0.07590609 -0.10168139
-0.07778957 -0.63545424 0.0724023 0.16100726 0.03693351 0.09778018 0.23424885 -0.1285635
-0.01558829 0.037379112 -0.660323 -0.00476847 -0.026031401 0.025184013 -0.26434463 0.36544287
-0.20660518 -0.08496597 0.12053553 -0.42582762 0.07237679 0.020261193 0.15582395 0.36164993
-0.08304309 -0.4473688 0.07119053 -0.27221254 -0.23683353 -0.21108307 0.15225202 0.2948522
-0.042518858 -0.14419274 0.08846199 -0.033492435 -0.023321448 -0.581153 0.26001158 -0.06467236

decoder.0.bias f4 [16]
00000000: b94d 1eb7 2c71 8a35 c822 05b5 c821 70b6
00000010: fab1 4435 f451 c135 f266 6935 8c13 43b6
00000020: a72d 34b6 b683 5536 807a c3b5 164c bfb5
00000030: d18e 1436 4ce4 2f36 57f2 0a37 6ece d936
-9.43563e-06 1.0314739e-06 -4.9596974e-07 -3.578245e-06 7.327468e-07 1.4403472e-06 8.694907e-07 -2.9068642e-06
-2.6848663e-06 3.181614e-06 -1.4564284e-06 -1.4252753e-06 2.2136849e-06 2.6209918e-06 8.281865e-06 6.4911355e-06

decoder.1.weight f4 [16]
00000000: 5629 fe3e f706 c53e 5846 913e d4d7 c03e
00000010: eed7 253f 17db b73e cc1d c33e f1d5 e83e
00000020: a68d f33e 3894 153f dcb7 9d3e 5bce c63e
00000030: c3a2 de3e 3065 f63e c541 813e 5add d63e
0.49640912 0.38481876 0.2837398 0.37664664 0.6478261 0.3590934 0.3810867 0.45475724
0.47569007 0.5842929 0.30804336 0.38829312 0.43483552 0.48124075 0.2524549 0.41965753

decoder.1.bias f4 [16]
00000000: 1e1b f6bc b518 92bd 5eaa 8b3d 25d8 513d
00000010: 709b 6abd 4544 3b3e 928c 37bc 7fc1 ca3d
00000020: a703 243d 8289 78bd 8bda a3bd 9301 2dbe
00000030: 9447 38bd 88b1 ac3d e0f0 343e 9faa 0bbe
-0.030042227 -0.07133619 0.06819604 0.051231522 -0.057277143 0.18287762 -0.011202948 0.09900188
0.040042546 -0.060678013 -0.08000668 -0.16895132 -0.044990137 0.08432299 0.17670012 -0.13639306

decoder.1.running_mean f4 [16]
00000000: c289 e4bd a343 04bd 637a e5bb 9784 81bd
00000010: 0159 7b3c e041 40be f61f f5bd 2576 a7bd
00000020: e090 f9bc d75d 2dbe e51d e0bd a688 24bc
00000030: aba7 e1bd 2df8 33bd dec3 3abe 2ef5 efbd
-0.11159088 -0.032291066 -0.007003115 -0.06324118 0.015341044 -0.1877513 -0.11968987 -0.08176831
-0.03046459 -0.16930328 -0.10943202 -0.010042345 -0.11018308 -0.04393785 -0.1823878 -0.11716686

decoder.1.running_var f4 [16]
00000000: 2dea eb3c dd77 be3c 1f83 ef3c 5fce 3e3c
00000010: fdea d53c 6390 e23c f8f3 033c 3bb7 fb3c
00000020: 8e59 9a3c f051 b83c 0323 923c 30bd 893c
00000030: 14ba 213d 9737 573d ed26 d83c d0b3 b63d
0.028798187 0.023250515 0.029237328 0.011645882 0.026113028 0.02765674 0.008053772 0.03072702
0.018841531 0.022500008 0.01783896 0.016813844 0.0394841 0.05254325 0.026385749 0.08921015

decoder.4.weight f4 [24, 16]
00000000: 2530 733d 92f3 d33c 0cc8 8d3e 8ae0 a13c
00000010: 01fc 40bd 60b0 41bd ceb2 54bd 5b29 13be
00000020: 1c8c 453d d4d1 09bd 6759 e63e dd86 2cbe
00000030: 0c24 a1bd 4535 5fbd 312b a4bd 3277 5c3e
00000040: e72c da3e 8806 093e d71c 353e 2f22 103b
00000050: c84f e03d 3026 d33a 4bfb e93a 707a 93bd
00000060: f917 26bd 95e0 aa3d 6f20 41be a605 65bd
00000070: 0615 1d3e 4050 b0bd 525d aabd f7a7 01bd
00000080: e023 f4bd 7bd1 b0bb 832a 30be 9ceb a3bd
00000090: 5659 823d efa1 3a3d 6587 d6ba b4a7 eebd
000000a0: d22e 5a3d 5449 83bd e0c0 8fbe abf1 803e
000000b0: 4fcb bf3d 368d 04bd bfe3 0ebe c2ae 99bd
000000c0: 0704 91be 08db 21be d2a6 58be 2b3c c6bd
000000d0: 3270 3cbd 978f 4f3d db76 023e 8381 303e
000000e0: ae30 e6bc e94c ed3c 4d84 253d cea7 a73d
000000f0: b569 8dbd 4408 433e 089a 563e 983a fdbd
00000100: d2bc a5bd 717b 903b 58a3 2dbd 3fcc 1e3e
00000110: c5a1 9ebd 190a 26bd 32c8 a7bd 2de6 203e
00000120: c1e9 d2bc 4bd1 9bbc 9c4c 8abc efe9 cdbd
00000130: 8400 c2bd 8399 a63a 8c05 d63d 39a1 9f3c
00000140: 1317 09be d096 0fbe 0f77 993e 4b60 663c
00000150: 78f2 c9bc 23a1 81bd 7b5e acbd d315 13be
00000160: 65a1 1d3d 5a4a b93b f8b9 af3e cb4e 1ebe
00000170: d59d 0cbd 7abf abbd c385 80bd f000 4c3e
00000180: 299e 153e 0794 d9bd 8600 853e 3fb4 c73c
00000190: 1c27 463d 27e6 0b3d 20f8 eabc 5220 69bd
000001a0: 3296 61bd a2d7 143e f994 27be 68fd 81bd
000001b0: 618c 8fbc 7d9d 35be 3f8e 693c 5e87 8abd
000001c0: 1f1d b33d 0dc6 05be a8c5 c9bd a0ed 62bc
000001d0: 68f0 01bc 4ce8 7a3d 04a2 ba3d abba 88bd
000001e0: dbff 853c 031b 8cbd 1d0f 2fbd 7203 ba3e
000001f0: dc7d 253e 0feb 2abe d0c5 faba 80f3 c2bd
00000200: 2868 65bd a0b2 90bc f762 9abe dad7 87bd
00000210: b252 f03b 63e6 86bd 6edf cd3d e8a2 233e
00000220: 09b7 3d3d ea59 25bd 39bc 83bd 47f8 39bd
00000230: 7d0c 3c3d 1734 a73e f850 533d d7a4 dcbd
00000240: dae0 47bd 9e2e cc3e 147b 10be 0702 283d
00000250: b26f 82bc d664 193d d333 9dbd 8ecb ed3d
00000260: b404 30bd a4f0 31bd 8167 98bd 2218 c5bd
00000270: 207e 19be 6305 d03d 9b16 e63b dfb3 8c3d
00000280: a49f 15be ebbc 3dbd 2fcf 913e ac7f 84bd
00000290: e852 3cbd 279f bbbd e989 14be 03e7 1ebe
000002a0: 9253 373c d2c8 313b d40b 723e a9c9 37be
000002b0: 35d7 f0bd 80a8 9fbd b0c3 85bd daf8 6d3e
000002c0: 1a1e 343e f00b 723e 0a59 0abd c256 bcbd
000002d0: c4d2 093e 9c59 ea3d 7344 c0bd b0e4 24be
000002e0: 6c7a 61bd 4c33 863d 512e 75be 0032 ce3d
000002f0: 4a23 abbc 224d 15be c488 173d e2a9 a83d
00000300: 7c6a 003d 45fd e0bd 80cf 37be 918a 3dbd
00000310: 476b 903c cc2b fe3c 8efb c1bd 0527 ca3d
00000320: 58b2 e33c 33e8 91bc b68d fcbd 909b 853d
00000330: 3308 833e 1516 213d 9a91 823d f8dc dbbd
00000340: 865e 33bd be39 f3bd 102f 83bd 0185 c83d
00000350: 0d37 99bd 7a92 51bd 9d98 923e 1f73 263e
00000360: f400 9e3c 0a34 16bd 61c7 c83d 3ab8 023d
00000370: 77cb 52bd f70e 343e 4a32 2dbc a95e 36be
00000380: e5c7 81bc 7551 173d 0efe e93a 01f5 da3d
00000390: ce64 e4bc 7405 0b3c 6cfd 2f3d c1e6 743d
000003a0: fed4 ea3a bbeb 69bc d9ab e63c d031 94bc
000003b0: e8a2 89bd 7df7 033c 561e 38bc 2d83 02bd
000003c0: 15a3 9bbd fd75 c73d 310d 1abc ccb6 bebd
000003d0: 5f09 a33d 3430 b83c ee36 fb3b 8296 41bd
000003e0: 206e b93d 02fb c1bd 2858 4b3e d304 6dbd
000003f0: 26de 48bd 43ea ccbd 7947 55bd c9a6 883d
0.059372086 0.02587298 0.27691686 0.019760389 -0.04711533 -0.047287345 -0.051928334 -0.14371245
0.04822932 -0.033647373 0.44990084 -0.16848321 -0.078682035 -0.05449416 -0.080160506 0.21529844
0.42612383 0.13381398 0.17686783 0.0021993031 0.10952717 0.0016109403 0.001785138 -0.072010875
-0.040550206 0.08343617 -0.18860029 -0.05591359 0.15340051 -0.086090565 -0.08318581 -0.031654324
-0.11920905 -0.005396066 -0.17203717 -0.08003923 0.06364696 0.04556459 -0.0016367255 -0.116530806
0.053267308 -0.064104706 -0.2807684 0.25184378 0.0936495 -0.03236123 -0.13954066 -0.075040355
-0.28323385 -0.1580621 -0.21157387 -0.09679445 -0.046005435 0.050674047 0.12740652 0.17236905
-0.028099384 0.028967338 0.040409375 0.08186303 -0.06904928 0.19046122 0.20957196 -0.123646915
-0.08092655 0.0044092466 -0.042392105 0.15507601 -0.07745699 -0.040536974 -0.08192481 0.15712805
-0.025746228 -0.019020697 -0.016882233 -0.10054385 -0.094727546 0.0012710545 0.10450277 0.019486057
-0.13387708 -0.14022374 0.29973647 0.014061044 -0.02465175 -0.063295625 -0.08416458 -0.14363794
0.038483996 0.0056546154 0.3432157 -0.15459745 -0.034330208 -0.08386131 -0.06275513 0.19922233
0.14611115 -0.10623937 0.25976962 0.02437794 0.04837714 0.034155037 -0.028682768 -0.05691559
-0.055074878 0.14535382 -0.16365422 -0.063471615 -0.017522993 -0.17735858 0.0142551055 -0.067641005
0.08745789 -0.13063832 -0.09852153 -0.0138505995 -0.0079308525 0.06125669 0.09112933 -0.06676229
0.016357353 -0.068410896 -0.042739023 0.36330754 0.16161293 -0.1669123 -0.0019132439 -0.095191
-0.056007534 -0.0176633 -0.3015363 -0.06632967 0.007334077 -0.065869115 0.100523815 0.15980113
0.046317134 -0.04036895 -0.06432385 -0.04540279 0.045910347 0.3265693 0.05159089 -0.10773628
-0.04879842 0.39879316 -0.1410945 0.04101756 -0.015922401 0.03744968 -0.076759 0.116110906
-0.042973235 -0.043442383 -0.07441617 -0.096237436 -0.14989519 0.101572774 0.0070217378 0.06870245
-0.1461168 -0.046322744 0.2847838 -0.06469664 -0.045977503 -0.09161215 -0.14505734 -0.15517811
0.011189358 0.0027127755 0.23637325 -0.17948021 -0.117597975 -0.07795811 -0.06531465 0.2323946
0.17589608 0.23637366 -0.03377632 -0.09196235 0.13459307 0.11442873 -0.09388056 -0.16102862
-0.05504839 0.06552753 -0.2394345 0.100681305 -0.02089085 -0.14580205 0.036995664 0.082355276
0.03135155 -0.10985807 -0.17950249 -0.046274725 0.017629279 0.031026743 -0.094718084 0.09870724
0.027795002 -0.017810917 -0.12331717 0.06523812 0.25592193 0.0393277 0.063754275 -0.10735506
-0.043791316 -0.11876248 -0.06405461 0.097909935 -0.07481203 -0.05116508 0.2863206 0.16254853
0.019287564 -0.036670722 0.098036535 0.031913973 -0.05146357 0.17583834 -0.010571072 -0.17809547
-0.015842387 0.036942918 0.0017852203 0.10691262 -0.027880099 0.008485187 0.04296629 0.059790377
0.001791626 -0.014277394 0.028158115 -0.018090159 -0.06720525 0.008054611 -0.011237701 -0.03186338
-0.07599465 0.09739301 -0.009402559 -0.093122095 0.07960772 0.022483923 0.0076664602 -0.047262676
0.09054208 -0.09471704 0.19857848 -0.05786593 -0.049039982 -0.100056194 -0.052070115 0.06672437

decoder.4.bias f4 [24]
00000000: b103 4a3e acbb 393e 52e7 823e a6db 843e
00000010: 12ad ba3d 120c 653e 346e 2b3e eca2 1e3e
00000020: 0b4e 8c3e 1b44 303e c5ef 9a3e 8f23 a13e
00000030: cabe 623e b134 063e 8635 a83c fcac 303e
00000040: a8c9 c73e 5555 3c3e 82ff 153e 5ef9 a93d
00000050: 6325 3e3e 4541 a53e 62fd d63e d7f6 853e
0.1972797 0.18137997 0.25567108 0.25948828 0.09115042 0.22367886 0.16741258 0.15491837
0.27403292 0.1721348 0.30261055 0.31472442 0.22143093 0.13106038 0.020533334 0.17253488
0.3902104 0.18391927 0.1464825 0.08299516 0.1856895 0.3227636 0.4199019 0.26164886

classifier.0.weight f4 [128, 8]
00000000: 7ef5 c13e a5d0 b8bb c3ae b4bd e4dd 993c
00000010: 5798 9d3c f08d 853d 1c31 693d 92af 01bd
00000020: a1c2 26bd e85a 19bd 6e13 a6bd 4608 d4be
00000030: 6302 78bd bd6a edbb 565d e03c 2066 3b3e
00000040: 780d 09be 09a5 04be 79ad 0ebe f0ea 543e
00000050: 8eff 113e e1b2 9ebc 81ce a5be 8ee8 e13d
00000060: 73ba 55be 15be 08be f084 b93e 32f8 f23d
00000070: 7aa4 c0bc 52bb b33d 1e3e 89bd 75ec e9bb
00000080: 3cb5 f4bd b12b 42be e60b 66be 85ad e1bb
00000090: 5c5f 643e b3c3 0abd d9d8 303e f1ae 213e
000000a0: fe1e 4b3e 3df1 4fbe 6191 17be e11c 5f3e
000000b0: b0b3 503e b6bf 2f3e 2c87 0c3c fecb 003e
000000c0: a62f 963e 703b 9d3d 847f 18bd fbf8 8fbc
000000d0: 57b5 ee3d 67bb 3d3e 1b3f 713e 23df 7b3e
000000e0: 6b83 083e 7daf 833c ed73 e33b 85be 6f3e
000000f0: f3e6 e53d 0a4c 29bd f9fa 4cbe 7704 273e
00000100: da53 6dbd af74 4f3e cffb 70be eb40 8fbd
00000110: 21ae 633e e190 d73d fffc 13bd 9038 2fbe
00000120: e1c3 1f3e 7e43 f0bc 45f3 073d 2bc9 d3bc
00000130: 24e9 55be 5dee aebe 2070 973e 9f24 4ebd
00000140: ced2 4e3e 1fac 6fbe ece7 4ebe 5fe2 083e
00000150: 206b 9f3d 8ecc 53bc 29cc bc3d e33f 013e
00000160: b93b 6abe a2b8 cbbd a178 093c 27ee 9ebe
00000170: 9488 383e 5d09 5c3d 82c1 f43d 6ece 69bd
00000180: 82f1 0f3e 8701 c9bd 2df3 63bd 324a 143e
00000190: 77bd a13e 89e1 513d 973a 46bd 4dcc 1fbe
000001a0: 5184 a3be a62e bcbd 3a62 79bc 3256 363b
000001b0: 5c7a 003e b3ab b3bc 12db 17be 72db bdbd
000001c0: b735 94bd a27e 543e 4034 8dbd 7c70 69be
000001d0: a331 afbd 4f89 3e3e cedb 8e3e e499 cdbd
000001e0: 2cbd 31be b29c 0a3d e9e1 963d 1024 0d3e
000001f0: 795a 3b3e 1054 8d3c a935 f33d 3cac 843e
00000200: bd3c 033e ebb4 1abe 3934 303d de9a a0be
00000210: 3f04 ea3d f704 72bd bbd5 cd3c 14ca d7bd
00000220: f76c ac3d bcf8 413e bbb1 73bd 748f ef3d
00000230: a6cb 4c3d 5a82 9ebe ccac f3bd 5247 3d3d
00000240: 0317 233c 84e2 9d3e f3e2 693e 2663 113a
00000250: 19fe 67be 596e 0cbd 13a8 10bd 76ea 0d3d
00000260: b161 88bd c5cf 92bd 049b 04be da50 a9bd
00000270: 0235 2f3e 9ce4 6abe 5839 32be e30d 81bd
00000280: 4c86 043e a482 563e a1fe 073d 8718 6a3e
00000290: 000b a7bd a6cc c9bd bf44 bcbd 8245 313d
000002a0: 247b 87bd d1c3 b2bd c115 a03e 48d7 a7bd
000002b0: 768a 8e3d feb1 c03d 55b9 8a3e 4360 a33d
000002c0: e54f b13d d1ff 733e 767e 8f3a 3d21 91bc
000002d0: f544 193e e739 513e 633a 26be 7dce 1b3e
000002e0: 86ff 40be e4ee d53d 5535 8f3e 16e4 243e
000002f0: 5c5f 013e a15a 303e c848 683d 3802 c1bb
00000300: c9d1 933e 8cf9 653e b635 6cbd 6be4 783c
00000310: 9964 573d f1c0 4b3d 418b 783e 021f 9ebd
00000320: ff25 81be a67d b53d 5f83 92be 2cd9 05bd
00000330: f3e3 e6bd e99b e0bd 1948 7ebe e63a f0bd
00000340: a558 2b3e ddfe 043d 507b 633e 761b a13d
00000350: fb41 b43e 20b5 a4bd 9439 d5bd 92e4 953e
00000360: 968b 76bd 0645 2dbe 48ec b73e b9ba 293e
00000370: 55b5 433e 5c9d b43d becd 333e 498c 353c
00000380: 1802 11be 265d d1bd 6f88 f43d 7434 4abe
00000390: f283 ee3d 4d26 873d 960f 423e 6b7c 80be
000003a0: 2040 07bc 93c8 11be d5c1 e5bc 3f50 443e
000003b0: bfd4 95bd 321a 09bc f958 cdbe 65db 97be
000003c0: e595 c13e 3fc4 603d 0a08 c8bd 6c87 09be
000003d0: 8ca5 863e fd39 eabc 6d4f d0bb 0f00 e93c
000003e0: 95f6 20be b423 813d 2f20 103e ad4f 153e
000003f0: 7f38 ddbd 90a2 fdbd 6053 97bd dbf6 1bbe
0.37882608 -0.0056401067 -0.08822396 0.018782564 0.01923768 0.06521213 0.0569316 -0.031661578
-0.040712956 -0.03744021 -0.08109175 -0.41412562 -0.06054915 -0.00724539 0.027388256 0.18300676
-0.13384044 -0.12953581 -0.13933362 0.20792747 0.14257643 -0.019372405 -0.32384112 0.110306844
-0.20871906 -0.1335376 0.36234236 0.11863746 -0.023515929 0.08775963 -0.06701301 -0.0071387836
-0.1194863 -0.1896198 -0.22465476 -0.00688714 0.22302002 -0.03387804 0.17270221 0.15789391
0.19836041 -0.20306869 -0.14801551 0.2178836 0.20381045 0.17162976 0.008577149 0.12577817
0.29333228 0.076773524 -0.037230983 -0.017574778 0.116556816 0.1852852 0.23559229 0.24596839
0.13331382 0.01607489 0.0069413097 0.23412521 0.11225691 -0.041332282 -0.20017613 0.16310297
-0.057941295 0.20259355 -0.23533557 -0.06994804 0.22234394 0.1052568 -0.036129948 -0.1711142
0.15602066 -0.029329058 0.033190984 -0.02585276 -0.20889717 -0.34166232 0.29577732 -0.050327893
0.20197603 -0.23405503 -0.20205659 0.13367604 0.07784104 -0.012927188 0.09218628 0.12622027
-0.22874345 -0.09947325 0.008390577 -0.3104107 0.1802085 0.053719867 0.11950971 -0.057081632
0.14056972 -0.098147444 -0.055651832 0.14481428 0.31589863 0.051240478 -0.04839572 -0.15605278
-0.31936887 -0.09188585 -0.015221173 0.0027822373 0.12546676 -0.021932459 -0.14829662 -0.092703715
-0.07236808 0.20751432 -0.068947315 -0.22796816 -0.08554389 0.18607067 0.27902073 -0.10039118
-0.1735732 0.033840843 0.07367308 0.13783288 0.18296231 0.017251998 0.11875469 0.25912654
0.12816139 -0.15108077 0.043018553 -0.31368154 0.11426591 -0.059086766 0.025126329 -0.1053659
0.08419221 0.18942541 -0.05949567 0.116972834 0.0499989 -0.30958825 -0.11898193 0.046210594
0.009954217 0.3083688 0.2284048 0.00055460853 -0.22655524 -0.034284923 -0.035316538 0.034647427
-0.06659258 -0.07168535 -0.12949759 -0.08267374 0.17110065 -0.2293877 -0.17404687 -0.06301477
0.12941855 0.20948273 0.033201817 0.22860919 -0.08156395 -0.09853487 -0.091928 0.04327918
-0.06615284 -0.08728755 0.31266597 -0.081953585 0.06960003 0.09408949 0.27094522 0.07977345
0.08657817 0.23828055 0.0010947722 -0.017716045 0.14967711 0.20432244 -0.1623321 0.15215488
-0.18847474 0.104459554 0.27970377 0.16102633 0.12634033 0.17222072 0.056710035 -0.005890157
0.2887099 0.22458476 -0.05766841 0.015191178 0.05258617 0.04974455 0.24271871 -0.07720758
-0.252243 0.08861856 -0.28615853 -0.032677814 -0.112739466 -0.109672375 -0.2483219 -0.11729984
0.16733034 0.03246962 0.22215009 0.07866566 0.3520659 -0.08042359 -0.10411373 0.29275948
-0.060191713 -0.16920862 0.35922456 0.16575135 0.19112141 0.088190764 0.17558953 0.01108081
-0.14160955 -0.10222845 0.11940085 -0.19746572 0.1164626 0.06599102 0.18951258 -0.25094923
-0.008255035 -0.14236669 -0.028046528 0.19171236 -0.07315969 -0.008368062 -0.40106943 -0.29659572
0.37809673 0.054874655 -0.09767158 -0.13430566 0.26298177 -0.028592104 -0.0063571245 0.02844241
-0.15719064 0.06305638 0.14074777 0.14581175 -0.108017914 -0.12384522 -0.073889494 -0.15230887

classifier.0.bias f4 [128]
00000000: 060b 37b7 203c c5b4 8a19 b138 abd0 7537
00000010: 5e7c 2b38 7836 d8b7 71cd ce38 13b4 7338
00000020: 78d7 e2b7 5312 5038 40ed e637 99a1 81b8
00000030: bbb3 6337 7faa aa38 5b84 10b8 5b90 88b7
00000040: 6249 5a38 22bc be37 edfe 9bb8 4e23 95b9
00000050: ebed 67b7 2c5a f938 3c3e fdb7 7786 d037
00000060: 87cf e5b8 1004 c7b8 5b08 1838 9b2f a4b8
00000070: 15bb 3cb8 8fb3 36b8 ef54 ceb7 8f56 21b8
00000080: b0e3 b6b8 4800 a4b8 6d30 3336 19a7 76b7
00000090: 30e4 9d37 c426 c036 874b 69b8 0c6c 2638
000000a0: 3b77 a0b8 b68a e936 e468 2c38 2ad5 3f38
000000b0: c981 8fb5 985a fe34 7521 1eb8 b686 87b8
000000c0: a1d2 9438 feb3 26b8 a0ec 4db7 aac2 0239
000000d0: d9e2 6cb8 a4ae 1d37 a06c ba37 7a1a 0f38
000000e0: 340c 0cb9 f981 98b9 1ba0 b439 0c5a 1e37
000000f0: 3500 e2b7 2015 b5b5 372b 99b6 c68d 1339
00000100: 6061 9f38 621a 10b9 fefd 26b7 9ded 1938
00000110: 6890 a6b8 084b 17b9 2d51 a838 544f 5bb8
00000120: c6a8 8237 d456 7e38 2a9e 0438 361d 49b7
00000130: 3208 64b8 690a f737 03c5 c0b7 a3a5 4038
00000140: 77f1 2138 195e 83b7 00de 8538 63ad 73b7
00000150: e711 e937 184f c137 7647 c4b7 cf72 d237
00000160: 2855 dcb8 fa99 60b6 2894 fe37 7002 0ab4
00000170: 2648 48b4 7fda 92b8 903e 0038 9ec9 2fb7
00000180: 0cf5 e938 73ac b238 6679 9736 c49d 0138
00000190: 72e3 bc38 5ca1 29b9 d43a ed35 5bac 1638
000001a0: 15b9 7db7 21aa cdb6 ccc5 9738 fa95 0c37
000001b0: ce1e 1138 20ef 8bb7 febe a238 dc9a afb7
000001c0: 8c04 d637 edb4 d237 869c 7cb8 963f 11b9
000001d0: 1392 bcb8 3845 6339 3b1f 84b8 01b2 ccb7
000001e0: 57e2 8d38 6c7c 1736 b87d 97b6 0ae5 05b8
000001f0: d447 86b5 c810 1836 4b0f c0b5 bd5f 2c37
-1.0910217e-05 -3.6737856e-07 8.444775e-05 1.4651722e-05 4.0885403e-05 -2.577457e-05 9.861112e-05 5.8103422e-05
-2.7041635e-05 4.960813e-05 2.7528615e-05 -6.181299e-05 1.3572101e-05 8.137989e-05 -3.445554e-05 -1.6279684e-05
5.2043593e-05 2.2737371e-05 -7.4384596e-05 -0.000284458 -1.38240675e-05 0.00011890041 -3.018893e-05 2.4858147e-05
-0.00010958226 -9.489816e-05 3.6247406e-05 -7.8289966e-05 -4.4996927e-05 -4.355941e-05 -2.4596664e-05 -3.8466005e-05
-8.7208464e-05 -7.820182e-05 2.6701266e-06 -1.4701648e-05 1.8822117e-05 5.726559e-06 -5.562187e-05 3.967811e-05
-7.651603e-05 6.960089e-06 4.1105683e-05 4.5736473e-05 -1.0692103e-06 4.7377102e-07 -3.7701295e-05 -6.4623935e-05
7.0964226e-05 -3.9745115e-05 -1.2274046e-05 0.00012470284 -5.6478053e-05 9.398591e-06 2.222351e-05 3.4118515e-05
-0.00013355986 -0.00029088536 0.00034451563 9.4385e-06 -2.6941396e-05 -1.3491699e-06 -4.564786e-06 0.00014071827
7.599848e-05 -0.00013742739 -9.953508e-06 3.6699337e-05 -7.9423946e-05 -0.00014428433 8.0259844e-05 -5.228755e-05
1.5575799e-05 6.0639184e-05 3.1618554e-05 -1.1987335e-05 -5.436707e-05 2.9449542e-05 -2.2979924e-05 4.593063e-05
3.8610273e-05 -1.5660235e-05 6.383285e-05 -1.4524298e-05 2.77841e-05 2.3044224e-05 -2.3398297e-05 2.5087413e-05
-0.00010506279 -3.3468227e-06 3.034815e-05 -1.2853138e-07 -1.8652699e-07 -7.0025206e-05 3.0575844e-05 -1.04777555e-05
0.00011155949 8.5198226e-05 4.5142833e-06 3.0902927e-05 9.0069036e-05 -0.00016177207 1.7674997e-06 3.5923305e-05
-1.5123068e-05 -6.1292817e-06 7.2370836e-05 8.379569e-06 3.4599383e-05 -1.6681443e-05 7.760337e-05 -2.0933738e-05
2.5512905e-05 2.5118201e-05 -6.0227256e-05 -0.00013851965 -8.991747e-05 0.00021674193 -6.3000676e-05 -2.4401585e-05
6.765563e-05 2.2573176e-06 -4.5147863e-06 -3.192298e-05 -1.0004683e-06 2.2659533e-06 -1.4309566e-06 1.027429e-05

classifier.1.weight f4 [128]
00000000: b39d 863f a449 723f 82f9 8e3f dc77 553f
00000010: 8ef7 753f 33e1 7d3f 2159 8a3f 55dc 7f3f
00000020: 93c8 883f 9831 6f3f 4aa6 613f 6686 843f
00000030: 167d 573f fda9 873f 8852 8a3f 24e7 6e3f
00000040: 5268 6f3f 7613 4b3f b0df 8f3f 6a06 653f
00000050: 61b2 503f 690d 553f 8c8b 683f aac1 4a3f
00000060: f841 8d3f 70f4 6d3f b5dd 813f 3c93 8c3f
00000070: e752 663f ffc8 7a3f 8586 803f a15c 6a3f
00000080: 9c12 693f d240 633f 156a 5c3f 4c1a 843f
00000090: 9d89 353f 110e 633f 2159 6b3f d5a4 873f
000000a0: 4e39 473f ecc5 5f3f ea0b 763f 39c9 683f
000000b0: 1b52 853f ccb4 813f f653 723f 762b 833f
000000c0: 7ccd 703f aecc 5c3f e933 663f 00a9 643f
000000d0: b25b 633f f478 7b3f c482 3d3f 3070 7d3f
000000e0: 9b25 643f 8732 753f 0779 763f d96c 633f
000000f0: 2eb5 8b3f 5aea 823f 3d45 643f eaf0 8b3f
00000100: da0d 933f 83f2 643f a3c0 653f 4278 843f
00000110: 1662 833f f008 6d3f 858a 7e3f d325 893f
00000120: 2605 5d3f 9219 693f 6b06 513f 263b 643f
00000130: 179b 683f 1791 713f 7026 7b3f 9812 7b3f
00000140: 667a 833f 0169 7a3f 68b1 763f e93d 563f
00000150: c38c 743f 5062 7a3f 34f2 613f dd28 813f
00000160: 9860 753f 6d42 653f 606a 813f 51de 393f
00000170: 478b 703f 42f6 8e3f 14a8 5c3f 5367 6e3f
00000180: 9024 813f 599e 843f 2e1e 6e3f 0bf2 5f3f
00000190: 9653 4b3f d5c7 833f 096b 713f 9cb9 7e3f
000001a0: e365 603f 9c2d 6b3f 5e4e 7f3f e618 8a3f
000001b0: 80d1 6f3f 8869 643f fd28 7b3f 1181 733f
000001c0: 7989 853f 2296 623f 2470 923f 2bd2 843f
000001d0: b12e 813f 0fb3 883f 0fe4 793f 84f9 813f
000001e0: bcdb 583f 393b 553f b503 663f c098 5f3f
000001f0: 2193 853f 8cac 673f ee8f 583f 3416 853f
1.0516876 0.94643617 1.1169894 0.83386016 0.96080863 0.9917175 1.080845 0.99945575
1.068621 0.9343505 0.8814436 1.0353515 0.8417524 1.0598751 1.0806437 0.9332144
0.93518555 0.7932657 1.1240139 0.8946291 0.81522185 0.8322359 0.9083793 0.7920176
1.1035757 0.9295111 1.0145785 1.0982432 0.8997025 0.97962946 1.0041052 0.9154759
0.9104402 0.8877078 0.8609937 1.0320525 0.70913106 0.8869334 0.91932875 1.0597178
0.77821815 0.8741138 0.9611193 0.9093204 1.0415682 1.01333 0.94659364 1.0247638
0.94063544 0.86249816 0.8992296 0.89320374 0.8881179 0.98231435 0.7402766 0.9899931
0.8911988 0.95780224 0.96278423 0.88837963 1.0914667 1.0227768 0.8916815 1.0932896
1.1488602 0.89432544 0.89747065 1.03492 1.0264308 0.9259176 0.99430114 1.0714668
0.8633598 0.9105464 0.8165042 0.89152753 0.9086165 0.94362015 0.98105526 0.98075247
1.0271728 0.97816473 0.9636445 0.8368822 0.95527285 0.9780626 0.882602 1.0090595
0.95850515 0.8955448 1.0110588 0.7260485 0.9396252 1.1168902 0.86193967 0.9312641
1.0089283 1.0360824 0.930148 0.87478703 0.79424417 1.0295359 0.9430395 0.9950197
0.87655467 0.9186647 0.99728954 1.0788848 0.93679047 0.8922353 0.9810942 0.95118815
1.0432578 0.88510334 1.1440473 1.0376638 1.0092374 1.0679644 0.97613615 1.0154271
0.8471029 0.8329349 0.89849406 0.87342453 1.0435525 0.9049766 0.8459462 1.0397401

classifier.1.bias f4 [128]
00000000: 16bb 00bc 5ba1 08be 995b 0cbd 16f4 02be
00000010: 00e6 173d 6663 533d 986b 303d 6862 f2bd
00000020: 6025 1abc f1ab ddbd 1ffa 86bd 0ecf 3e3d
00000030: 845e f0bc 7ea5 1bbe ea3e 61be c54c 36be
00000040: 695c 3fbe 9310 e4bd fae8 e73c b2fc 03be
00000050: 38ce c9bd 4e66 aabe cd8e b0bc 98ac 2cbe
00000060: 1370 3dbe 30d5 4abe 275a bebd 2f6d 34be
00000070: 2669 1abe 5c2c f1bd 740f 29bd ea2b 83bd
00000080: 0604 1ebe 041b 4ebd 2aa7 1cbe 31a8 a1bd
00000090: 1da5 7fbe 59f5 eebd 790f 2abd 59d9 d23d
000000a0: dde2 5cbe a3a6 5cbe 67d5 39be b198 b43c
000000b0: 68b6 33bd c3bf aabd 75a5 03be afb9 a13d
000000c0: 539b a3bd 51fb 3bbe fd05 28be 332b 3ebe
000000d0: dd01 f6bd a986 cdbd 4e4f 59be 0888 3abe
000000e0: fb95 c8bd f3bb acbd 8505 f9bd 0598 e5bd
000000f0: 80a3 823d d6ac 3c3c 1c8f a2be e32a 053d
00000100: 9e94 12bc 058d 44be bf9b f8bd ddcb 54bd
00000110: 44db d4bd e34e 1bbe 123e f9bd fd16 2bbd
00000120: 68a0 25be 7279 b33c 3fd4 43be 1fdf ab3d
00000130: 274b 2cbe 2150 adbd 58bc d2bd 29dc 2abe
00000140: 125f f9bd a4bc a8bd 35b2 eebd a4a5 12be
00000150: 6985 983d f517 97be 921b 5f3d ce75 32be
00000160: e41d b2bd 6acc 93bd 3701 f3bc 409d 3fbe
00000170: 83b0 1fbd 3e0d 743d 8297 31be 6c16 b83d
00000180: 6cff 41be 97a5 cd3d 1a92 f63d f7a5 53be
00000190: 5727 1ebe e10d fd3c 2f2b c4bc 8f71 2ebe
000001a0: 26c3 d4bd 5f1c d1bc 550e 1ebd 7f50 32bd
000001b0: 3fc0 48bc 40e2 94be 9b67 80bd 3fad d53d
000001c0: 2193 26be ec82 743d 92d5 88bd 7df6 0abd
000001d0: ced8 95bd 5361 b03c 2958 0fbe aee9 12bd
000001e0: 0693 17be d655 343d a92f 01be 750e febd
000001f0: 35b3 24bc 18d3 733d d96d 04bc f562 a9bd
-0.007857105 -0.13342802 -0.03426704 -0.12788424 0.03708458 0.051608466 0.04307136 -0.11835176
-0.009408325 -0.10823811 -0.065906756 0.04658418 -0.029341944 -0.15199849 -0.21996656 -0.17802723
-0.18687595 -0.11135974 0.028309334 -0.12889364 -0.09853786 -0.33281177 -0.021552468 -0.16862714
-0.18499784 -0.19807887 -0.09294539 -0.17619775 -0.15079173 -0.11776039 -0.041274503 -0.0640486
-0.15431222 -0.050318733 -0.15298143 -0.07893408 -0.2496533 -0.1166789 -0.041518662 0.10295362
-0.21570916 -0.21547942 -0.18147813 0.022045465 -0.043875128 -0.08337357 -0.12856086 0.078967445
-0.0798861 -0.18357588 -0.16408534 -0.18571167 -0.12012074 -0.1003545 -0.21221659 -0.18215954
-0.097942315 -0.08434286 -0.12159256 -0.11210636 0.063788414 0.011515817 -0.3174981 0.032511603
-0.008946566 -0.1919442 -0.12139081 -0.05195223 -0.10393384 -0.15166812 -0.12170042 -0.04176997
-0.16174471 0.021908496 -0.19123934 0.08392166 -0.16825543 -0.08462549 -0.1028983 -0.16685547
-0.12176336 -0.08239105 -0.11655084 -0.14321 0.07447321 -0.29510465 0.054469652 -0.17427751
-0.086971074 -0.07216723 -0.029663665 -0.1871233 -0.038986694 0.05958294 -0.17342952 0.08988652
-0.18945092 0.100413494 0.120395854 -0.2066878 -0.15444694 0.030890407 -0.023946373 -0.17035507
-0.10388784 -0.025526224 -0.038587887 -0.0435338 -0.012252866 -0.29078865 -0.06269761 0.10433435
-0.16267063 0.05969517 -0.0668136 -0.033926476 -0.07316743 0.021530783 -0.13998474 -0.035867386
-0.14802179 0.044027172 -0.12615837 -0.12405101 -0.010052492 0.059527487 -0.00808283 -0.08270828

classifier.1.running_mean f4 [128]
00000000: 1078 3a3d 3277 e9bd 068a 213c ae6c 693d
00000010: 76cd c3bb 0add dd3d cee5 003e bcbf b33d
00000020: 3312 d93c e688 b9bd b198 743c 8205 26bd
00000030: 4268 cf3d fff3 0bbd 973e a5bc ed5d d53d
00000040: f7c8 50bd 3cad 70ba 5d33 883c 6aa1 8ebd
00000050: fa64 593d d0a5 9f3d b6cc e93d d947 153e
00000060: a805 ac3d b702 16be 9de9 2d3e a7d4 183e
00000070: 654d 3fbc ae7e 46bd ab2f 873d 5bf0 98bc
00000080: fb06 6ebd 84ed 8b3d c47c 603c c4c9 b43c
00000090: 3b16 213d add6 f03b 8e8b 883d 092e c63c
000000a0: 7e16 b83d 41cc ccbc 52de 623d 8f4f 083d
000000b0: 3509 76bd 9a15 f8bc d6e4 a63c 25c4 05bd
000000c0: 1150 d7bb 1c0c 91bd 0553 22be a429 0f3e
000000d0: bc61 023c 8a5d aa3c 82dc cdbc 160e 00be
000000e0: 4c09 bbbd 0a65 0fbd 4cbb ca3d 1e03 b2bd
000000f0: b61b 19bb 7e63 0bbd 1675 09bd 8eb3 913d
00000100: 60de 0c3e 7c2f 553d 9295 003c 6474 50bd
00000110: 766a 053d 758c 9bbd 6aff 6fbd 17ae ef3c
00000120: 1a92 6f3d c404 5cbd a5bf 5f3d 471a e5bd
00000130: 823b 01bd f8d8 493d 7edb f6bd 57a7 22be
00000140: 7d8f b4bd a2cd 983c c16f cabd b418 013d
00000150: 6529 c5bd 928c 75bd 4171 033d 735b 1b3e
00000160: 86a2 9fbd fef4 73bd abfc 793c 2b7f b63c
00000170: 42bf 393d 4966 113d cded b63c 34ac b8bd
00000180: de6e a83d 0c4a 2d3d ae8c 9ebd 887d 9ebd
00000190: 080a e33d f098 45bc b954 9a3c 20f6 7c3c
000001a0: fba7 833d 0faf d5bc aeaf 023c 3aba 523c
000001b0: aeb7 79bd 42bc 94bd 26f4 043e 996b 77bd
000001c0: 5057 b4bd c859 403b 2462 e6bc d65b cc3d
000001d0: d37d 1e3c f04e 4a3c 33b2 6abd 870d 3bbd
000001e0: cf0a ecbd a10e 83bd 2ab5 11bd ab89 60bc
000001f0: fd59 323d b108 e0bd 7e6f a4b9 362e 723d
0.045524657 -0.11399688 0.0098595675 0.05698841 -0.0059754206 0.108331755 0.12587664 0.08776805
0.026497936 -0.090593144 0.014928983 -0.040532596 0.101273075 -0.03416824 -0.020171447 0.104183055
-0.050972905 -0.00091810874 0.016626054 -0.06964381 0.053074814 0.07795298 0.11415999 0.14578189
0.08399516 -0.14649473 0.16983648 0.1492487 -0.011676167 -0.048460655 0.06600889 -0.018669298
-0.058112126 0.06832412 0.013701621 0.022068866 0.03932784 0.00734981 0.06667243 0.024191873
0.08988665 -0.02499974 0.055387802 0.033278998 -0.060067374 -0.030283738 0.02037279 -0.03265776
-0.006570824 -0.07082388 -0.15851982 0.13980728 0.007957872 0.020796556 -0.02512956 -0.12505373
-0.091326326 -0.035008468 0.09899005 -0.08692001 -0.0023362464 -0.03403043 -0.033558927 0.071143255
0.13756704 0.052047238 0.00784816 -0.05089225 0.032572232 -0.075951494 -0.05859319 0.029257817
0.058488943 -0.053715482 0.054626126 -0.11186653 -0.03155089 0.049279183 -0.120535836 -0.15884148
-0.08816431 0.01865274 -0.098845966 0.0315177 -0.09627036 -0.05994851 0.03209043 0.15171604
-0.07794671 -0.059559815 0.015257995 0.022277435 0.045348413 0.035497937 0.02233019 -0.0901722
0.08224271 0.042306945 -0.07741676 -0.07738787 0.11085898 -0.012060389 0.018839227 0.01543954
0.06428524 -0.026084451 0.007976456 0.012861783 -0.060966186 -0.0726247 0.1298376 -0.060405347
-0.08805716 0.0029350389 -0.028122969 0.09978454 0.0096735535 0.012347922 -0.05729885 -0.045667198
-0.11525499 -0.063992746 -0.035573162 -0.013704698 0.04354285 -0.10939158 -0.00031363586 0.0591261

classifier.1.running_var f4 [128]
00000000: 78ac 0c3d b3db 563d 2ac0 e13c 610d f83c
00000010: 4843 923c 9595 283d 682b 583d a105 d73c
00000020: 766f 853c d5af 1e3d fe8f fe3c b2c5 173d
00000030: 0635 b83c c751 8d3c 02dd 323d 21fe 593c
00000040: 2416 2c3d 4a0a 263d 7bea e73c 068d 223c
00000050: b648 043d 000f 2f3c c6cc ae3c e312 ba3c
00000060: fc13 a53c a40f ba3c a3c9 f93c aaf8 683c
00000070: d7ca b03c bcb5 b53c 3b00 8b3d c011 503d
00000080: d5b7 273d 291a 033d 44d7 473d f701 d83c
00000090: 25a2 cd3c 8034 ba3c c836 b43c 3b89 933c
000000a0: f988 ba3c 2efb f63c 0b27 c53c a7b9 e03c
000000b0: ff95 2e3d 14a5 f93c 1594 423c d39e c93c
000000c0: e5bc 3c3d 2a75 ca3c 701d 803d 6e8a a73c
000000d0: e0ee ec3c e7b8 333d 1332 5b3c 24ad 853d
000000e0: c415 753c b8ef 4e3c 1a3e 7f3c d126 cd3c
000000f0: 4bf6 a53c 7bee de3c f2b4 723c 3c83 953c
00000100: a601 173c 0102 093c dbdb 123d cdc2 413d
00000110: dc03 633d 5491 ee3c 8293 133d 6a26 6a3d
00000120: df8d 613d c3fe 643c 58e4 8f3d 6404 693d
00000130: 102f ad3c 28d3 cd3c 06ef 423d 3e0a 863c
00000140: 6842 b63c 11a4 0f3d 58ac ad3d b7e2 623d
00000150: 3187 3e3d ae94 1d3d 8810 0f3d a001 c13c
00000160: cc78 a73c fcce 5c3d 7982 733d 6ce1 9f3d
00000170: 54b7 9b3d b0c5 903d 6b8c 273d 5143 5e3d
00000180: 9b98 df3c ca65 103d 700e 223d b6cb 003d
00000190: 88cf 293c 84cb 993c 392a 8e3d c7d3 513c
000001a0: 1ccf e83c 8bc2 bf3c 1bb3 313d 25bf 433d
000001b0: 7490 fb3c dbd3 893d 96a1 5f3c de6a 183d
000001c0: dc66 8f3d 2b3c c93c 5288 373c 6d8c ea3c
000001d0: edcd 843d 5354 5f3c 82c0 463d bb38 333c
000001e0: b859 9a3c 6dbd a23c 4fb6 f03c 9c49 253c
000001f0: 68eb 153d 177c 8d3d 2ac2 263d 58b7 f33b
0.034344167 0.052455615 0.027557451 0.030279817 0.017854348 0.041158278 0.05277577 0.026247801
0.0162885 0.038741905 0.03107452 0.03705377 0.022486221 0.017250909 0.0436678 0.013305218
0.042013302 0.040537156 0.028310051 0.009921318 0.032295905 0.010684729 0.021337878 0.022714084
0.02015113 0.022712536 0.030491656 0.014219442 0.021581097 0.022181384 0.06787153 0.050798178
0.0409468 0.03200737 0.048789278 0.026368124 0.02510173 0.022730112 0.021998778 0.018009773
0.022770392 0.030149069 0.024066469 0.027432276 0.042623516 0.030474223 0.011876126 0.024611866
0.04607858 0.024714071 0.06255615 0.02045175 0.028922498 0.04387751 0.013378638 0.065271646
0.014958803 0.012630396 0.015578771 0.025042923 0.020259043 0.027213326 0.014813649 0.018251054
0.009216702 0.008362294 0.0358542 0.047304917 0.055423602 0.029122032 0.036029346 0.05716554
0.05506694 0.013976756 0.07025975 0.056888953 0.021140605 0.025125101 0.04759123 0.016362306
0.022248462 0.035068575 0.084801376 0.055391993 0.046515647 0.03847187 0.034927875 0.023560345
0.020443343 0.053908333 0.0594506 0.07806668 0.076033264 0.07068956 0.040905397 0.054263417
0.027294448 0.035253324 0.03956455 0.031444274 0.010364421 0.018773802 0.06941647 0.012806839
0.02841907 0.023408195 0.0433837 0.04778971 0.030708529 0.06729861 0.013649365 0.03721129
0.07002041 0.024564823 0.011201935 0.028631413 0.0648459 0.013630944 0.048523434 0.010938819
0.01884161 0.019865716 0.029383807 0.010088351 0.036601454 0.06908434 0.040712513 0.0074376278
